model_autoencoder_engineered.pth (torch, 25697 bytes, 28 tensors)

encoder.0.weight f4 [32, 28]
000000 ed e2 d2 3c 08 a6 3b bd 63 8c dc bc 38 cc b1 3b
       0.025742972 -0.045812637 -0.02692241 0.005425956
000010 08 e6 04 3e 1e fc 65 01 2b fb 30 bd a6 50 ce bc
       0.12978375 4.2241542e-38 -0.043208282 -0.02518494
000020 86 4d cc bd 9f ed 4c bd d6 14 8a 3d 59 4a a8 bd
       -0.09975724 -0.0500313 0.067422554 -0.08217306
000030 1f 7d d8 bd 3b 74 69 bc cc 50 38 3e 4b b1 7c be
       -0.1057074 -0.014248903 0.17999572 -0.24677007
000040 7c 76 15 be e6 d0 8a bd d4 cc 0a 3e 28 31 37 3e
       -0.1459598 -0.067781255 0.13554698 0.17889845
000050 70 1d a6 00 9b 79 d4 3d 83 4f 36 be 1f 72 3d 3e
       1.5255253e-38 0.10374757 -0.17803769 0.18500565
000060 e1 79 a7 3c bd 19 89 bc 0f 75 0a bd 1d 52 10 bd
       0.020443859 -0.016735906 -0.033803042 -0.03523456
000070 f5 0d ca 3d c5 da 2a bd c1 3e b5 3d 56 08 47 3a
       0.09865943 -0.04171254 0.0884986 0.000759249
000080 01 b7 a4 bd 90 97 ea 00 f0 41 93 bd 6f b3 f2 bc
       -0.08042718 2.1543876e-38 -0.07190311 -0.029626576
000090 f1 ce 73 3b 18 d0 a8 3d 97 57 4b 3d ad 66 b9 3d
       0.0037202204 0.08242816 0.04964408 0.09052787
0000a0 dc c9 cd 3d 59 8d 97 bd 4a 5a b9 3b 48 ac 97 be
       0.10048267 -0.07400007 0.0056565152 -0.29623628
0000b0 17 21 0a bd 97 2a e0 bd 86 f0 c0 3d c1 88 cc bd
       -0.033722963 -0.10945623 0.09420876 -0.09987021
0000c0 34 98 d1 80 61 34 f6 bc f5 a1 81 be be 94 5e 3e
       -1.9248219e-38 -0.030054273 -0.25318876 0.21736428
0000d0 83 8b 00 3d ea 6a 7e bd 54 41 f4 bd d2 77 a0 bc
       0.03138305 -0.06211368 -0.11926523 -0.019588385
0000e0 45 63 b0 bd 63 57 0f 3e 07 fb 56 bd 36 80 75 3d
       -0.08612684 0.13998179 -0.052485492 0.059936725
0000f0 27 f7 86 bc 6b 5e d2 80 51 76 1a be a4 bd d0 3d
       -0.016475273 -1.9319325e-38 -0.15084197 0.10192421
000100 bb 63 2a bc 0d b2 fd bc 87 ca b3 bd 8a 3c f0 3d
       -0.010399754 -0.03096869 -0.087788634 0.11730297
000110 99 2f 53 bd ea 9a 9c bb 51 93 d4 3d fb 03 60 bc
       -0.051559065 -0.0047792094 0.10379661 -0.013672824
000120 40 da 4b bc c4 5a 8a bb e1 6f 46 be fb ab a6 bc
       -0.012442172 -0.004222246 -0.19378616 -0.020345679
000130 67 68 a3 81 49 b8 91 3d f6 a6 4d 3e eb e1 1e be
       -6.0026554e-38 0.07115228 0.20083222 -0.15515868
000140 33 30 0f be 41 75 9a 3e b5 ad 9d 3c 63 8b a2 bd
       -0.1398323 0.30167583 0.019247869 -0.07936742
000150 e0 9e 75 3d de c4 8a bd 3e 7e 83 3e 46 ac 05 3b
       0.059965968 -0.06775831 0.25682253 0.0020396872
000160 a0 51 99 3d b1 fd 9c 01 e2 e5 5c bd a4 56 54 3d
       0.07486272 5.766938e-38 -0.05393017 0.05184044
000170 de 8f ac 3b 9e 84 8d 3d a5 c9 91 bd a9 8f d0 bb
       0.0052661737 0.0691006 -0.07118539 -0.006364782
000180 10 d1 1e be 0d 85 d8 3c fe 5f 38 be 02 25 4f 3d
       -0.15509439 0.026430631 -0.18005368 0.050572403
000190 f0 48 0b 3e 42 67 10 be d9 7e 9b bd aa bd c9 bd
       0.13602042 -0.1410189 -0.07592554 -0.09850629
0001a0 bb 24 99 01 c9 93 fc 3d 52 8e d2 bb 67 57 19 bc
       5.625603e-38 0.12332875 -0.0064256573 -0.009359217
0001b0 cb 5e 0c bd 1e 82 3f 3c cb 98 22 3c 0e 59 f7 bd
       -0.03427009 0.011688737 0.009924124 -0.12077533
0001c0 59 dc a1 bc d0 f1 71 3d 29 2b c4 3c 4d e5 3a 3d
       -0.01975839 0.0590685 0.023946362 0.045628835
0001d0 a2 f2 7e be df 13 60 01 bb 0c 54 3d 13 2f 5e bd
       -0.24897245 4.115656e-38 0.051769953 -0.054244112
0001e0 83 a9 62 bc fb 10 38 3d b0 ab 90 3d a8 81 f5 3c
       -0.01383436 0.04493807 0.07063997 0.029969051
0001f0 f7 b3 9d bc 6b 63 d3 3d c4 af d2 3d e5 54 9c bc
       -0.019250853 0.10321697 0.10287431 -0.01908345
000200 8c 04 fe bc 85 1d d5 bd d4 68 77 be d7 8f 9e bd
       -0.031008027 -0.10406021 -0.24161083 -0.07742279
000210 d6 08 a6 81 45 10 89 3d 48 c9 0c bd 4f df f1 bd
       -6.099145e-38 0.06692556 -0.034371644 -0.11810171
000220 a7 72 80 bd 8c ea d8 be 7f 66 87 bd e3 33 82 3d
       -0.06271868 -0.42366445 -0.066113465 0.06357553
000230 d1 13 16 3e c2 1c dc bd 02 9c ca bd ad 61 b3 3c
       0.14655997 -0.107476726 -0.098930374 0.021897161
000240 42 74 56 be 98 b1 3b 00 8f d9 0e 3e 97 03 04 3d
       -0.20942786 5.482003e-39 0.1395018 0.032229986
000250 fe de 42 3c d2 f4 97 bd 42 ce d8 3d 65 19 d3 3d
       0.011893986 -0.07419743 0.105862156 0.10307578
000260 7d 76 a5 3d ed 22 e8 3c 10 cd 9a 3c 5c 6d 4a bd
       0.080792405 0.028336966 0.01889661 -0.0494207
000270 fe 4a 61 3c 15 3f 61 3d 68 ae b2 3d c5 10 0e bc
       0.01375079 0.0549918 0.087246716 -0.00867099
000280 00 21 38 80 a1 ed b1 bd 70 c0 03 3e 3d 5f be bd
       -5.154626e-39 -0.08687902 0.12866378 -0.09295509
000290 70 20 b8 3d a7 b9 2d bd 85 6e 2c bd 6d 9b 6e 3e
       0.08990562 -0.04241338 -0.042097587 0.23301478
0002a0 3e 4e 79 bd b8 c5 11 be ab 76 11 3e dd 32 6e bd
       -0.060865633 -0.1423558 0.14205424 -0.058153976
0002b0 16 ab 99 3d 40 13 21 00 8e 1a 85 bd d2 eb 61 3d
       0.07503335 3.037477e-39 -0.064992055 0.055156536
0002c0 b4 06 4c bc 7e 57 c0 bd 62 fa 34 be 0e d5 e2 3c
       -0.01245277 -0.09391688 -0.17673638 0.027689483
0002d0 45 4b 9c 3d 66 c7 da bd 65 bc 02 be f2 b7 b5 3d
       0.07631544 -0.106825635 -0.1276718 0.088729754
0002e0 f2 a1 d2 3d a0 be 30 3e 37 bb 1b 3d b5 b7 96 bc
       0.10284795 0.17260218 0.03802034 -0.018398145
0002f0 a4 06 94 01 ef 46 de 3c 07 8b e7 3c da 0e aa 3d
       5.437614e-38 0.027133433 0.028264536 0.08303614
000300 ec ba 11 3e eb 40 2d 3e 09 5a 0c 3b d1 18 49 3e
       0.14231461 0.16919295 0.002141597 0.19638373
000310 80 54 91 bd 9d e1 65 bd 23 f2 b1 3c f3 18 1c bd
       -0.07096195 -0.056123365 0.021721905 -0.03810973
000320 28 41 0c bc 12 3e 2c 01 3c a3 9f 3b 67 d7 a0 bd
       -0.008560456 3.1635944e-38 0.004871754 -0.07853585
000330 64 af 7e bd 3e 05 ef 3c 18 6f 5f 3e fe b9 07 be
       -0.062178984 0.029177304 0.21819723 -0.13254544
000340 39 31 3f bc 62 a4 b4 bd 13 46 15 3e 7f f2 3c 3d
       -0.01166945 -0.08820416 0.14577512 0.0461297
000350 41 2a 7c 3d 88 6f fa 3d 74 d4 89 bd 2c e8 1c 3e
       0.061563734 0.12228304 -0.06729975 0.15322942
000360 f3 19 91 81 2a 1e be 3c fe b9 5e 3e 1c 71 52 3d
       -5.3301823e-38 0.023207743 0.21750638 0.0513774
000370 c8 04 32 3d 9a 91 91 be 3a a0 b0 bd 92 3e cd bd
       0.04346159 -0.28431398 -0.08624311 -0.100217
000380 1a 5a 8b bd b7 0d b1 3d f3 7e 27 3b d2 13 7b 3d
       -0.06804295 0.08645194 0.0025557845 0.0612982
000390 51 d9 c4 bd 48 95 95 00 d6 fe ba ba 5b 2d fe 3c
       -0.09611762 1.3737041e-38 -0.0014266621 0.031027487
0003a0 77 a0 39 bc 2a d4 2d 3d df f8 00 3e 48 65 4a 3d
       -0.011329762 0.042438664 0.12594937 0.049412996
0003b0 fa 44 a8 bc e4 77 18 3d cf 86 a6 bc bb d2 d5 3c
       -0.020540703 0.03722371 -0.020327954 0.02610146
0003c0 da d2 86 3d 24 11 0a be c9 21 07 3c 89 b2 6c 3d
       0.065831855 -0.13483101 0.008247801 0.057787452
0003d0 cf 05 74 80 a5 dd 70 3d 6e 09 09 3e 28 79 c5 bd
       -1.0655001e-38 0.058805127 0.13382503 -0.09642249
0003e0 af a3 f3 bc d0 1b 42 be c1 57 76 3e 09 54 73 be
       -0.029741136 -0.18955922 0.24056913 -0.23762526
0003f0 ba 40 95 bb 37 84 01 3d 09 f7 38 be 72 b9 5b bd
       -0.004554835 0.03162023 -0.18062986 -0.05364365

encoder.0.bias f4 [32]
000000 2a 34 46 3e e5 8d 9b 3e ad a6 f0 3c 43 68 94 3e
       0.19355837 0.30381694 0.029376352 0.28985795
000010 c9 e4 ab 3e ae 17 57 3d 67 d8 bb 3e 77 74 8a 3e
       0.33572987 0.052512817 0.3668854 0.2704198
000020 8c d7 73 3e 1a 8e 49 3e b6 8e a5 3c 83 d1 37 3e
       0.23812693 0.19683114 0.020209651 0.17951016
000030 3f c9 c7 3e e0 97 4a 3e 46 8b 07 3a d7 88 1f 3d
       0.39020726 0.19784498 0.00051705947 0.03894886
000040 c1 6c ac 3e 3c 23 04 3f 60 73 94 3e 81 b7 ab 3e
       0.33676723 0.51616263 0.28994274 0.3353844
000050 cb 61 79 3e 38 16 8e 3e fe bc 91 3e 79 e4 b0 3e
       0.24353711 0.27751327 0.28464502 0.3454931
000060 dd 7b 89 3e 62 72 8f 3e 79 ca 90 3e 47 0b 50 3e
       0.26852313 0.28016955 0.28279474 0.20316802
000070 fb b8 5b 3e 66 cc 91 3e 80 a6 e2 3e e7 d3 88 3e
       0.21457283 0.28476256 0.44267654 0.2672417

encoder.2.weight f4 [32]
000000 c0 7a 75 3f 8f f8 85 3f 0f be 6e 3f 77 04 77 3f
       0.95890427 1.0466479 0.93258756 0.9649119
000010 22 74 80 3f f9 51 6a 3f 8f 22 6b 3f 17 62 80 3f
       1.0035441 0.9153133 0.9184961 1.0029935
000020 f7 f0 68 3f 69 ee 6a 3f af a9 83 3f 1d b8 73 3f
       0.90992683 0.91770035 1.0286158 0.9520281
000030 58 e4 7a 3f 68 90 75 3f d0 3e 52 3f 9d ef 66 3f
       0.98004675 0.9592347 0.82127094 0.9020937
000040 81 c8 88 3f 57 95 73 3f 4d 4d 81 3f 87 02 6c 3f
       1.0686189 0.9514975 1.0101715 0.92191356
000050 16 57 63 3f e8 44 6c 3f fb 6a 71 3f 61 3b 71 3f
       0.8880476 0.9229264 0.94303864 0.9423123
000060 ae 81 5a 3f 83 58 82 3f ab 9d 78 3f b4 c8 81 3f
       0.85354125 1.0183262 0.9711558 1.0139375
000070 6c 8a 79 3f f4 2c 70 3f 1d bf 80 3f fb 17 61 3f
       0.9747684 0.93818593 1.0058323 0.87927216

encoder.2.bias f4 [32]
000000 8c 54 61 3e 0b dd d5 3d 6d d0 d6 3d 7d 88 01 be
       0.22004908 0.10442551 0.10488973 -0.12649722
000010 a0 49 0c be 93 ef 01 3e 84 de 46 3e e9 d8 2a bd
       -0.1369996 0.12689047 0.1942082 -0.041710768
000020 71 5c 75 bd 94 77 59 be 11 a3 67 3e 15 66 08 3b
       -0.059902612 -0.21237022 0.22620799 0.0020812799
000030 13 a8 39 3d c3 62 85 bd 41 20 4a 3e 38 84 19 3e
       0.045326304 -0.06512978 0.19738866 0.14991844
000040 97 de 01 3e 80 7d 32 bc 6b a8 3b 3d 9f 0b 80 be
       0.12682568 -0.010894179 0.045814913 -0.25008866
000050 3d 4c 1f be 06 05 f1 3d 02 a4 1e 3e c7 d8 0f 3e
       -0.15556426 0.11768536 0.15492252 0.14047538
000060 28 b5 16 3e 4b 66 4e 3c b3 6c 11 3e 0d a8 c3 3d
       0.14717543 0.012597631 0.14201622 0.095535375
000070 8e d0 63 3b 03 82 f8 3d 42 9c 9e 3d f9 f3 93 3d
       0.003476176 0.12134173 0.077446476 0.072242685

encoder.2.running_mean f4 [32]
000000 be fb cf 3e d4 ba fd 3e e2 61 83 3e 14 b2 c7 3e
       0.40621752 0.495566 0.25660616 0.3900305
000010 32 e6 fd 3e 4e a0 76 3e 7d 95 d9 3e 42 be d3 3e
       0.49589688 0.24084589 0.42496863 0.41356093
000020 78 43 ce 3e bb 45 bf 3e 0f 67 a0 3e f0 e6 b7 3e
       0.4028585 0.37357888 0.31328627 0.3591838
000030 5a 7f db 3e 5b 87 c6 3e bc 56 66 3e 2a c7 99 3e
       0.428706 0.38775143 0.22494024 0.30034763
000040 c0 c6 ed 3e 29 3e 16 3f 92 9e d6 3e 30 93 ea 3e
       0.46440697 0.586886 0.41917855 0.4581542
000050 46 39 d9 3e b1 fc e0 3e 60 07 e3 3e f1 24 cd 3e
       0.4242651 0.43942788 0.44341564 0.40067247
000060 7d ba b8 3e 56 a7 cf 3e 58 e3 c9 3e 53 e0 a9 3e
       0.3607978 0.40557355 0.39431262 0.33178958
000070 24 27 9a 3e a3 02 d3 3e fa 8a 03 3f c2 07 0b 3f
       0.30107987 0.4121295 0.51383936 0.5430871

encoder.2.running_var f4 [32]
000000 5d c9 8c 3e b2 6b 55 3e 3c 20 4d 3e 41 d9 28 3e
       0.27497378 0.20841864 0.20031828 0.16489126
000010 b6 66 1f 3e 5a e7 09 3e f3 54 70 3e ac fb 32 3e
       0.15566525 0.1346716 0.23469906 0.17478818
000020 98 9a 4d 3e 6f a1 57 3e 8c 8c 62 3e c3 1b 66 3e
       0.20078504 0.21057676 0.22123927 0.22471528
000030 85 96 3b 3e 56 08 78 3e 54 19 18 3e 51 16 1f 3e
       0.18319137 0.2422193 0.14853412 0.15535857
000040 8d b1 3f 3e fc 95 6b 3e 94 41 a8 3e 1b e6 50 3e
       0.18720074 0.23006433 0.32862532 0.20400278
000050 f3 db 5d 3e b4 af 82 3e 4d 21 6a 3e fc 86 3c 3e
       0.21665935 0.25524676 0.22864266 0.18410867
000060 22 71 46 3e 1e 2b 34 3e be a1 0f 3e 48 1f 4d 3e
       0.19379094 0.17594573 0.14026543 0.20031464
000070 58 2c f3 3d f9 5e 58 3e 23 83 60 3e 55 e8 79 3e
       0.11873692 0.21129979 0.21925025 0.24405034

encoder.4.weight f4 [16, 32]
000000 8f c9 ab 3d a9 cf a5 3d ef 66 de ba 37 c1 19 be
       0.083880536 0.08096249 -0.0016967932 -0.15015112
000010 3d f0 14 3d e8 7e 28 3e 47 66 32 3d 75 19 9a bd
       0.03636192 0.16454661 0.04355457 -0.07524387
000020 c2 78 4e bd 7b 7b 49 bd 87 c0 d0 3d c9 bf 31 be
       -0.050408132 -0.049190026 0.10192972 -0.17358316
000030 8c 51 34 3e c5 15 e6 bc 25 5c 58 bd bc ad b2 3d
       0.17609233 -0.028086552 -0.05282225 0.087245435
000040 83 cc 02 3d 2f d6 82 3d 59 06 0e 3e 3c 3b 20 3c
       0.03193332 0.063885085 0.13869609 0.009779748
000050 d3 0d 54 bd 39 b8 8c 3c 5d 19 ae bb 1f a5 a6 bd
       -0.051770996 0.017177688 -0.005313082 -0.08136963
000060 bc 04 dc bd 4d a0 07 3d 1a b1 a4 bd 79 80 10 3d
       -0.107430905 0.03311186 -0.08041592 0.03527877
000070 cd 62 85 bc 95 23 09 3d d9 f0 4c be 0a 0c 42 bd
       -0.016282463 0.0334812 -0.20013751 -0.047374763
000080 c2 37 12 be 42 c2 b2 bd 0e c5 63 bd 2d 21 ea 3c
       -0.14279082 -0.08728458 -0.055607848 0.028580273
000090 cc 21 f4 bc 8f 48 91 3c c5 d0 47 3e 4a ed ae bc
       -0.029801272 0.017734794 0.19513233 -0.021353383
0000a0 a1 e4 6c 3d f3 ae 83 bd 44 35 fe bd 1a 3d 60 3d
       0.057835225 -0.06429853 -0.12412503 0.05474577
0000b0 2f 47 e5 3d c8 81 4c 3d 0f 49 4a bb 84 fa 32 be
       0.11195218 0.049928457 -0.00308663 -0.17478377
0000c0 b4 61 23 be 60 c0 72 bd 79 01 e2 3d 5b 19 32 3e
       -0.1595524 -0.059265494 0.11035437 0.17392485
0000d0 26 2b 82 3c 14 a1 74 bc ba cf 30 be 9f 1f d7 3d
       0.015889715 -0.014930982 -0.17266741 0.10504078
0000e0 9c 11 cd bd b6 ab bc 3c dc a6 65 bd b3 15 4c 3c
       -0.10013124 0.023031097 -0.056067333 0.012456345
0000f0 dc bf 11 be 66 b2 1c bd 43 c7 ae bb 6d 66 69 be
       -0.14233345 -0.03825607 -0.0053338124 -0.22792979
000100 9e 28 e1 3d 62 78 f4 bc 0f 51 11 3d 4e 26 9e 3d
       0.10994075 -0.02984256 0.035477694 0.0772215
000110 1d de 15 be 54 43 fb bc aa 4e 06 3e a0 31 ad bd
       -0.1463551 -0.030671753 0.13115945 -0.08456731
000120 e1 6e db bd 24 f0 79 bd eb e1 8d bb 66 bd b3 3d
       -0.10714508 -0.06102003 -0.00432991 0.08776359
000130 ca 9c 84 3c 5f 96 85 3c b4 67 44 3d bb 67 7d bc
       0.016188044 0.016307054 0.04795046 -0.015466626
000140 8a 7b fb bb 14 18 0e be a6 18 2a 3e fe 86 af bd
       -0.007674639 -0.13876373 0.16610965 -0.085706696
000150 0b e3 6d bd 57 df 84 3d 0c 2f ad 3d 61 fb 96 3d
       -0.058077853 0.06487911 0.08456239 0.073721655
000160 95 5b b0 3d 51 12 aa bd 79 12 14 bd c9 19 ef 3d
       0.08611218 -0.08304275 -0.03615043 0.1167484
000170 24 17 35 3e f8 cf 39 b8 9a a9 db 3d 8a f3 03 3d
       0.17684609 -4.4301123e-05 0.10725708 0.03221468
000180 7f 9f 7c 3d e8 2d 9b 3d 8a 7c 88 be 47 c5 a7 bd
       0.061675545 0.07577115 -0.26657516 -0.081919245
000190 7d b7 42 bd 6f 37 c7 3d bf d9 43 3d 76 51 63 3e
       -0.04753827 0.0972737 0.04781508 0.22199044
0001a0 cb 10 95 3d b9 ca 86 3a 2c 83 aa 3c ad 79 fc 3d
       0.07278594 0.0010283805 0.0208145 0.12327895
0001b0 67 46 08 bd 3a 71 de bc ab be ec 3d 68 ab cc 3c
       -0.033270266 -0.0271536 0.115598045 0.024984077
0001c0 98 50 c8 3d fa 5f 5d be ea 1f bd 3d 5e 60 4f be
       0.09780997 -0.21618643 0.09234603 -0.20251605
0001d0 bd 1c 86 bd b0 aa 15 be 98 82 11 be d0 53 52 be
       -0.0654845 -0.14615893 -0.14209974 -0.20539784
0001e0 c4 83 23 3d cb e2 6b bd ca 03 00 3e 00 d8 73 3c
       0.039920583 -0.057589334 0.12501445 0.014883041
0001f0 7f d3 65 3d 8d 54 66 bc 76 2a 99 bd 30 4d 79 3d
       0.0561099 -0.014058244 -0.07478802 0.060864627
000200 16 11 14 3e fc 0c 40 3e 91 40 da bc e6 18 c3 bc
       0.14459643 0.18754953 -0.026642116 -0.023815583
000210 47 65 46 3d 65 47 20 3c 21 bc c0 bc 7d f1 ec 3d
       0.04843643 0.009782647 -0.023527207 0.11569498
000220 d5 d5 86 bd 62 9c 97 3c 98 cc 9c 3d 93 b0 b5 bc
       -0.06583754 0.018507186 0.07656211 -0.022178924
000230 68 e7 9b bd c3 d5 4d 3d 9c 76 1e 3d 19 b2 08 3d
       -0.076124966 0.050252687 0.038687333 0.033372972
000240 36 f5 fb 3d ad c0 d1 3d 87 ce 86 bc 9b 2a 82 bd
       0.1230263 0.10241828 -0.016455902 -0.063557826
000250 ef f1 d1 3d 01 97 ff 3d 26 7a 08 3a 67 b2 2f bd
       0.10251223 0.124799736 0.000520619 -0.042894747
000260 40 37 bd 3c 55 c0 3f 3e c3 32 63 3c 44 c7 8d 3e
       0.023097634 0.18725713 0.013867083 0.2769109
000270 cd a6 03 be e2 04 d9 3d 4d 65 a4 3d 3b 17 08 3e
       -0.12856598 0.105966344 0.08027134 0.13290112
000280 3b f5 19 3d 0f d4 c2 bd 50 53 b3 3d c8 19 d8 bd
       0.037587386 -0.09513103 0.08756125 -0.105517924
000290 49 2d bc bd 69 02 ff bd 7c 52 93 bd bb 12 45 bd
       -0.09188325 -0.124516316 -0.07193467 -0.048113566
0002a0 7e 9f 15 3e aa cc ad bc 7c 48 c7 bd 9c 38 17 be
       0.14611623 -0.021215755 -0.09730622 -0.14767689
0002b0 08 1f bb 3c 63 80 11 be 80 8c ba 3c 75 d9 01 3c
       0.022841945 -0.14209132 0.022772074 0.007925381
0002c0 94 aa c3 3d 7c 3d ad bd 52 99 4e 3d d3 18 97 bd
       0.095540196 -0.08458993 0.050439186 -0.07377782
0002d0 93 3f 69 3e 66 1b ce 3d 25 39 bd bd c9 8e 26 3d
       0.22778158 0.100638196 -0.09239415 0.040663514
0002e0 aa 29 0e 3e 04 c6 d3 bc b4 35 3a 3e 3a c8 21 bd
       0.13883081 -0.025851257 0.18184549 -0.03949759
0002f0 b5 17 84 bc 13 3f 98 3d ae 17 86 bc 36 fd 02 3d
       -0.016124586 0.074339055 -0.016368713 0.031979762
000300 58 94 98 bc a1 cb 2d bd 91 12 fc 3c 1d 83 a9 bd
       -0.018625423 -0.042430524 0.030770572 -0.08276961
000310 77 ca ff bd 61 9d 3b 3d cd 5f dd 3d 1d 56 98 bc
       -0.12489789 0.045804385 0.10809288 -0.01859575
000320 1a d7 d3 bd 89 54 c0 bc 91 67 6d 3d 83 ae 3a bd
       -0.10343762 -0.02347781 0.057960097 -0.045576584
000330 e8 29 a0 bd e7 a6 fa 3d db 7e 8e bd 57 08 4f 3d
       -0.07820493 0.12238865 -0.069577895 0.050545063
000340 09 6d 4d 3d c3 a1 5c bd 5b cc c3 3c 6b aa a8 bb
       0.050152812 -0.053865205 0.023901155 -0.0051472685
000350 0d f6 a5 3c fb 35 d8 3d 2a 76 33 3d 8b ca 71 bb
       0.020258928 0.10557171 0.043813862 -0.0036894407
000360 3e 41 8b bd e9 f7 2b bb 9c 36 b9 3d 73 d9 c7 3c
       -0.06799553 -0.0026240295 0.09043619 0.02439568
000370 bb 18 3b bc bb 75 ca bd 54 8e b4 3d 1c 8d 4e bd
       -0.01141947 -0.098857366 0.088162094 -0.05042754
000380 ca b2 d3 bd 13 36 3a be 0d ff ba 3d bc 7e 1c bd
       -0.10336836 -0.1818469 0.09130678 -0.0382068
000390 1e 6c 01 be 2c a9 b2 bb 43 1b c1 3c 6f b1 25 3e
       -0.126389 -0.0054522958 0.02357257 0.16180967
0003a0 80 17 67 3d 67 12 98 bc 00 8f 7e bd 7b 6a ae 3c
       0.056418896 -0.018563462 -0.062148094 0.021291008
0003b0 b3 ae d0 3d 23 1e 5f 3d d6 d8 4c 3c 17 32 d9 3c
       0.10189571 0.0544721 0.01250287 0.026513143
0003c0 fa f2 0e be 6d f5 b1 3d 7f 9f 36 3e c4 12 ca ba
       -0.13959876 0.086893894 0.1783428 -0.001541697
0003d0 54 dd d4 bd e8 71 e1 bd b0 52 10 be 7f a0 a5 3d
       -0.103937775 -0.11008054 -0.14094043 0.08087253
0003e0 42 3b fd 3b d1 82 26 be dd 50 e8 3d e8 c8 c6 bd
       0.0077280113 -0.1626084 0.113435484 -0.097062886
0003f0 ec 4b 75 be 9b 4c 97 bd 66 27 78 bd d5 28 45 be
       -0.23954743 -0.07387658 -0.06058445 -0.19253857

encoder.4.bias f4 [16]
000000 79 5a 17 3f 40 e9 8d 3e 59 65 09 3f d0 60 a9 3e
       0.59122425 0.27717018 0.5367027 0.33081675
000010 76 9b 51 3d 0a c7 07 3f 0d af 31 3f a1 f4 25 3a
       0.05117365 0.53038085 0.6940773 0.0006330703
000020 bb 4a a9 3e c8 50 52 3d f0 8d 5b 3e e8 12 b7 3e
       0.33064827 0.05134657 0.21440864 0.35756612
000030 64 09 01 3f 4d 5a 05 3f 5a 9f 50 3e a8 12 94 3e
       0.50404954 0.52090913 0.20373288 0.28920484

encoder.6.weight f4 [16]
000000 57 67 58 3f 07 70 61 3f f4 af 60 3f eb 1f 5b 3f
       0.84532684 0.88061565 0.87768483 0.8559558
000010 49 b8 6d 3f 2a 04 60 3f ce 27 39 3f f8 2f 82 3f
       0.9285932 0.87506354 0.7232636 1.0170889
000020 f2 86 50 3f 1c fc 49 3f 47 b5 5e 3f 14 b9 60 3f
       0.8145591 0.78900313 0.8699536 0.87782407
000030 b3 de 56 3f ee b9 61 3f 73 09 56 3f 6c 25 66 3f
       0.8393356 0.8817433 0.8360817 0.8990085

encoder.6.bias f4 [16]
000000 19 5f 21 3e bc 72 2b 3e 2a 4c a2 3e 67 b2 d8 bd
       0.15758933 0.16742986 0.31698734 -0.105809025
000010 4f 11 8e be 78 7e 90 be bb a8 3b 3f 2a 2c 74 3e
       -0.2774758 -0.28221488 0.7330434 0.23844972
000020 f2 d6 fb 3e 1f 91 b9 be c3 2d fc 3c cf b8 03 bc
       0.49187428 -0.3624353 0.03078354 -0.008039667
000030 bc dd 35 be 45 2e 32 3f 8c 94 53 bd 23 cf 8d 3e
       -0.17760366 0.6960185 -0.051655337 0.27697095

encoder.6.running_mean f4 [16]
000000 b4 b2 41 3f 31 bb ed 3e 89 2e 42 3f da eb 29 3f
       0.75663304 0.46431878 0.75852257 0.66375506
000010 91 14 0b 3f 30 b6 39 3f 16 19 4c 3f a2 8b db 3e
       0.54328257 0.7254362 0.7972578 0.4287997
000020 3f 64 27 3f 88 b9 f0 3e 3e 07 f6 3e 1b b3 23 3f
       0.6538734 0.4701655 0.480524 0.6394517
000030 7e 93 2d 3f 4b 5a 2d 3f 13 d4 f1 3e c8 79 0c 3f
       0.6780318 0.677159 0.47232112 0.54873323

encoder.6.running_var f4 [16]
000000 a2 3e e8 3e 24 20 f9 3e 81 36 0a 3f 82 bb 13 3f
       0.45360285 0.48657334 0.53989416 0.5770799
000010 08 0a 3a 3f 69 b7 17 3f 8c 0c b7 3e 58 62 09 3f
       0.72671556 0.59264237 0.3575176 0.53665686
000020 f0 dd 24 3f aa e8 f9 3e 48 0a d2 3e 5d d9 20 3f
       0.6440115 0.4881032 0.4102347 0.6283167
000030 31 78 ba 3e 58 23 12 3f 2f be a8 3e b7 0e 1a 3f
       0.36419824 0.5708518 0.329576 0.60178703

encoder.7.weight f4 [8, 16]
000000 ab 19 a9 3d 1e bd 3f bd 46 70 d4 bc 11 1d fe 3b
       0.08256849 -0.046811216 -0.025932442 0.00775493
000010 56 19 bd bd ec 1a 03 3d 09 b4 70 3e 5e 00 32 3e
       -0.09233348 0.032008097 0.23506178 0.17382953
000020 b4 97 a6 bb fc 00 2e bc 3e c6 4d bd 15 40 62 be
       -0.0050840024 -0.010620352 -0.050237887 -0.22094758
000030 45 8a 00 be 56 f2 9d 3d d5 f2 8f bd b6 af 25 bd
       -0.12552746 0.077122375 -0.070287384 -0.040450774
000040 4a 4d 4c 3e 2a 49 3f 3e ab 08 4b 3e 4f 10 d0 3d
       0.19951358 0.18680254 0.19827525 0.101593606
000050 20 de 07 be 98 1b 00 be c4 8f d1 3d 95 09 15 bd
       -0.13268328 -0.12510526 0.10232499 -0.03638609
000060 b6 d9 17 3e f2 52 58 be 2a 4a a3 3d 58 28 02 be
       0.14829144 -0.21125391 0.0797313 -0.12710702
000070 ca 5c 71 3d dc d7 bf bc b5 e8 c3 bc 34 b9 6c 3e
       0.05892638 -0.02341836 -0.023914674 0.23117524
000080 4c 4d c9 3b 5f 5c 08 3e 24 59 c7 bd 80 69 51 3d
       0.0061432477 0.13316487 -0.09733799 0.051126003
000090 87 6b 6f be 15 b9 4f bd 42 89 27 3c 0f 7f ac 3e
       -0.23380862 -0.050713617 0.010225596 0.33690688
0000a0 78 e3 32 bd ed 8c e8 3c 51 6f dd bd d6 88 5e 3e
       -0.043673962 0.028387511 -0.108122475 0.21731886
0000b0 55 c6 6d bd 0a 8a 0f 3e ab f1 4c 3d c8 19 06 3d
       -0.058050472 0.14017501 0.05003516 0.03273943
0000c0 cc a6 c1 bd 94 ab 71 3d b6 aa 3f 3e 95 86 90 bb
       -0.09455642 0.05900152 0.18717465 -0.0044105747
0000d0 b8 af 2d be 23 85 50 be 9c c6 8c 3e 6c 77 11 bc
       -0.16961563 -0.20363288 0.27495277 -0.00887857
0000e0 1a 7e 0f 3e 35 4b a2 bc 01 b5 42 3c 34 55 44 3d
       0.14012948 -0.019811252 0.011883975 0.04793282
0000f0 9a f6 08 3c 03 50 e6 3c 31 c4 55 3d 68 79 0d bd
       0.008359576 0.028114324 0.052189056 -0.03453961
000100 7e e6 e4 3c 46 c5 d6 bc b1 2c f9 3d 5a 2d 80 3d
       0.027941938 -0.026217114 0.12166727 0.0625865
000110 2a ae df 3d 80 50 11 be 4e 4b 9d bd ff 34 19 bc
       0.10921891 -0.14190865 -0.07680379 -0.009351014
000120 9a 06 80 3e a5 66 d8 bc 25 64 34 3d 1b 37 3c bd
       0.25005037 -0.026416132 0.044040818 -0.04595099
000130 c9 d9 0b be 06 30 10 3e 3d 5e 97 bd 17 a2 f3 3d
       -0.13657297 0.1408082 -0.073910214 0.118961506
000140 9c 73 58 3e c1 08 d0 3d 07 95 2b be 16 85 ff bd
       0.21137851 0.1015792 -0.16756068 -0.12476556
000150 ac 31 74 bd c6 f2 be bd df 4e a9 3c 10 10 85 bd
       -0.059617683 -0.09323649 0.020667491 -0.06497204
000160 0a 1f 01 3e d3 a7 5d 3d 3e f9 fc 3d 75 3e f1 3c
       0.12609497 0.054115128 0.12352227 0.029448727
000170 53 e3 09 bc 8d f0 65 3d 7c 69 8e 3b 5f 66 1d 3d
       -0.008416015 0.05613761 0.004346071 0.038427707
000180 04 f2 f3 bd aa 97 8c 3d c2 89 4c 3e 5e 34 7f be
       -0.11911395 0.06864865 0.19974425 -0.2492232
000190 cf 47 6a bd 8c c9 3e 3c f1 ca 15 3e 6b 3f 90 3d
       -0.05719739 0.011644732 0.14628197 0.07043346
0001a0 b8 3a f4 3c 0e 98 35 be 40 f0 37 3e 10 31 60 bb
       0.029813156 -0.17733786 0.17962742 -0.003420893
0001b0 9b f6 12 be 0a 69 7a 3e 5b a8 a3 3d 20 19 0a 3e
       -0.14351885 0.24454132 0.07991096 0.13486147
0001c0 87 48 3c 3d a8 2d a9 bd 70 39 30 bd 42 ab 13 3b
       0.045967605 -0.08260661 -0.043023527 0.0022532498
0001d0 77 43 ec 3d d5 d2 a0 3d f3 60 3a 3e 90 fe 93 3d
       0.115363054 0.07852713 0.18201046 0.07226288
0001e0 a2 9c 19 bb 03 a1 10 bd 9d b7 92 bd 5a e7 f1 3d
       -0.0023439308 -0.035309803 -0.07163928 0.11811705
0001f0 15 87 e6 3d ef ad 4c 3e 2d ed 16 be a2 47 20 bd
       0.112562336 0.19988225 -0.14738913 -0.039130814

encoder.7.bias f4 [8]
000000 ff 7f de 3e 79 99 7c 3e 7f 96 46 3e e1 08 ee 3e
       0.43457028 0.2466792 0.19393347 0.4649115
000010 7d af 8b 3e 8b 4a c9 3e 67 7c 81 3e f5 bc 75 3e
       0.27282324 0.39314684 0.25290224 0.23997863

decoder.0.weight f4 [16, 8]
000000 bb b1 ac 3d ab 5d 5e be 88 6a bc bc 7c 90 7c be
       0.08432337 -0.21715419 -0.023000017 -0.24664491
000010 46 e5 0e 3e 2c 04 85 3d 3d 40 98 be 98 6c aa be
       0.13954648 0.06494936 -0.2973651 -0.33285975
000020 1e 03 8d 3e 33 fc 34 3e ee 03 d7 be dd b6 8a 3d
       0.2754144 0.17674331 -0.41995186 0.0677316
000030 69 a4 58 3e f7 7d 9a be d8 4b 8c 3e 17 86 83 3e
       0.21156467 -0.3017423 0.27401614 0.2568824
000040 9a 39 26 be 17 9f 55 3d ff 89 62 be b5 96 81 3d
       -0.16232911 0.052153673 -0.22122954 0.06327573
000050 af c7 4e be f1 f3 7c ba 4c 3c c3 bd b0 4e 6d 3e
       -0.20193361 -0.0009649387 -0.09532985 0.23174548
000060 14 c3 ea 3d ec bd 03 3e cb ed c3 3e ad 40 eb bd
       0.114629894 0.12865418 0.3826736 -0.11486945
000070 c3 34 9c bd 50 a9 19 3d 4e 10 a1 3d bc 0c b0 bd
       -0.07627251 0.037514985 0.07864438 -0.08596179
000080 72 2b 8e bd 15 cc 03 be 05 9b b0 bc b3 6e ee 3e
       -0.0694188 -0.1287082 -0.021558294 0.46568832
000090 ed 0b 39 3e e6 42 b5 3e e3 cf 61 be d7 ec 63 bd
       0.18070956 0.35402602 -0.22051959 -0.05564579
0000a0 b6 ba 18 3d 2c 31 ac 3e 9c 04 ac 3e 20 ac ec 3d
       0.037287436 0.33631265 0.33597267 0.11556268
0000b0 76 17 8d 3d b5 c6 b3 be 6f 54 9e bd cf 25 8e 3e
       0.068892404 -0.3511254 -0.07730948 0.2776322
0000c0 9f e0 42 3e 99 fe 5a be 48 43 4f 3e 25 33 9a be
       0.19030999 -0.21386184 0.2024051 -0.30117145
0000d0 46 ae 55 3e 0f 72 92 bd e2 fb d4 bd 37 97 30 3d
       0.20867261 -0.07150661 -0.10399605 0.04311296
0000e0 e4 b9 94 bd ff 2e 78 3d 74 ad f8 3d 5b 98 9f 3d
       -0.07262018 0.060591694 0.121424586 0.077927314
0000f0 24 9e 80 3e b8 96 44 be 7b 78 9c be 1b d1 63 be
       0.25120652 -0.1919812 -0.3056067 -0.22247736
000100 86 ec 15 3f bc 77 15 3e 02 52 c3 bd 20 ff 13 3e
       0.5856403 0.14596456 -0.09537126 0.14452791
000110 f7 96 54 bd ae fa 7d 3e 9a 60 9a bd ed 7a 3f 3e
       -0.051901784 0.24802658 -0.075379565 0.18699236
000120 3e 7d 4f 3e d5 1b 36 bd ec 44 b3 3d bd 37 45 3c
       0.2026262 -0.044460136 0.0875338 0.012037215
000130 88 d1 c3 3e 1c 53 3f 3d d1 3b b9 bd e5 de b1 3e
       0.38245797 0.04671012 -0.09044612 0.34740368
000140 e6 d7 92 3d 21 fb 9f 3c d0 a6 52 3d 15 35 0e 3e
       0.071700856 0.019528927 0.051428616 0.13887437
000150 3e 51 93 be 45 25 e3 bc b6 02 44 bd d8 4b b1 be
       -0.2877292 -0.027727732 -0.047854148 -0.34628177
000160 1d 7c 0e 3e 70 a9 34 be 81 d1 3c 3e 88 d6 ed 3e
       0.13914533 -0.1764276 0.18439294 0.46452737
000170 8c 49 ae bb 69 6d fe bd bc 9e 43 be 00 9c 44 3e
       -0.005318826 -0.12423212 -0.19103521 0.19200134
000180 30 1c 1d be d8 bd ff bd b9 ee b6 bd a7 bf 85 3d
       -0.15342784 -0.12487382 -0.089322515 0.065306954
000190 00 1c 93 3d 46 7a 03 3e c7 81 7d 3e e9 5e 56 bd
       0.07183075 0.12839612 0.24756537 -0.052336607
0001a0 81 82 f1 bd c9 98 3f be 61 e6 76 bd 9f 27 c1 3d
       -0.1179247 -0.18710627 -0.0602783 0.09431385
0001b0 a0 7d 41 3e 8a ff 66 be da 8d c4 bd 64 97 b6 be
       0.18895578 -0.22558418 -0.095973685 -0.35662377
0001c0 30 14 87 bd dc 91 5c 3d 14 6b 8e be d7 b6 b7 3a
       -0.06595647 0.05385004 -0.2781607 0.0014016283
0001d0 00 a8 cc 3e d4 96 eb 3d 77 ba d6 bd 6a 6f ae 3e
       0.39971924 0.115033776 -0.10484784 0.34069377
0001e0 97 fe 9c 3c 0a 27 19 3b f2 71 08 3e d0 33 8c bd
       0.019164367 0.0023369216 0.13324717 -0.0684582
0001f0 2d c3 88 be 7a f6 45 be a6 b6 16 be 67 81 1f be
       -0.26711407 -0.19332305 -0.14718112 -0.15576707

decoder.0.bias f4 [16]
000000 b2 ea eb bd e8 50 36 3d 2f 3b ba 3e 95 42 a4 bd
       -0.11519374 0.044510752 0.36373278 -0.08020512
000010 2a 4e 5e 3e 8a e4 9f bd f6 57 fc 3e 8f 26 c7 3e
       0.21709505 -0.07807262 0.4928586 0.38896605
000020 e7 ee f2 b9 b1 8e 96 be 94 d9 d6 3e e5 f8 a6 3e
       -0.00046335833 -0.2940574 0.41962874 0.32611766
000030 21 78 8a 3d 66 1e 4a be ab b2 69 be 57 a9 c0 3e
       0.06761194 -0.19738159 -0.22822063 0.37629196

decoder.2.weight f4 [16]
000000 31 46 4b 3f 15 12 5b 3f d5 e4 82 3f 5a 91 83 3f
       0.7940398 0.85574466 1.0226084 1.0278733
000010 a1 0f 86 3f 4a bd 6b 3f 33 4a 79 3f 7e bf 6f 3f
       1.047352 0.9208571 0.97378844 0.9365157
000020 1b 70 7e 3f 19 86 7d 3f 8e 32 92 3f 2c 1a 8b 3f
       0.9938981 0.9903274 1.1421678 1.0867362
000030 47 e2 74 3f e0 1d 6e 3f f2 f3 6e 3f 7c 73 5a 3f
       0.9565777 0.93014336 0.9334098 0.85332465

decoder.2.bias f4 [16]
000000 09 51 50 3e 7d 55 66 bc 29 8d d0 bd 66 3a c2 bc
       0.20343412 -0.014058468 -0.10183174 -0.023709487
000010 9f 98 97 3e c2 3d 97 3d ff 69 d0 bd f8 f3 a0 3c
       0.29608628 0.07384826 -0.10176467 0.019647583
000020 55 b3 2c be 37 12 ba bd ff c4 1f 3e 49 83 4e 3d
       -0.16865285 -0.090855055 0.15602492 0.050418172
000030 b8 6c 2e bd 0a 08 99 be 8f 51 7b bd db c4 1a be
       -0.04258415 -0.29888946 -0.061357077 -0.15114157

decoder.2.running_mean f4 [16]
000000 04 00 00 00 21 c7 05 3f bb cc 36 3e 40 16 4a 3e
       6e-45 0.5225697 0.17851536 0.1973505
000010 de 9a 17 3f 18 24 b8 3e 61 5c a7 3e 4b af 53 3e
       0.59220684 0.35965037 0.32687667 0.20672338
000020 f2 e6 40 3f 26 6c 70 3e a3 a3 9a 3e c0 17 2e 3f
       0.75352395 0.23478755 0.3020297 0.6800499
000030 4a 30 3e 3e 04 00 00 00 dd 38 25 3e a0 74 a2 3d
       0.18573108 6e-45 0.16134973 0.07932401

decoder.2.running_var f4 [16]
000000 04 00 00 00 74 97 ef 3d 4d fd a7 3c 67 22 85 3d
       6e-45 0.11698809 0.020506525 0.06500702
000010 6e 81 b2 3d f4 6d 87 3d 6b 96 32 3d 6c b3 cb 3c
       0.08716093 0.06612769 0.04360048 0.024865828
000020 97 8d a2 3d 22 a7 81 3d 20 60 46 3d 81 46 a5 3d
       0.07937162 0.06330706 0.048431516 0.08070088
000030 d3 08 e0 3c 04 00 00 00 7e 33 80 3d 06 1f 40 3c
       0.027347958 6e-45 0.06259821 0.011726147

decoder.3.weight f4 [32, 16]
000000 58 43 80 be 10 d2 60 bd b9 7f 1b be 3d 93 3f bd
       -0.2505138 -0.05488783 -0.15185441 -0.046771277
000010 f9 5b 6f 3e 73 9a 23 3c be 7e 96 bc 1f fd 17 3e
       0.23374929 0.009985554 -0.018370982 0.14842652
000020 d6 70 44 3e a0 b9 34 be c9 11 84 3d 29 9a b9 3d
       0.19183668 -0.17648935 0.06448705 0.09062607
000030 1d 1c 78 3c 0d fa c7 bd 2e 04 4d 3e 97 47 c0 bd
       0.0151434215 -0.0976449 0.20021126 -0.09388655
000040 22 85 39 3e b9 d4 87 be d1 04 df 3d 27 70 e6 bc
       0.18117192 -0.26529482 0.108895905 -0.02812965
000050 43 09 38 3e 39 22 ad bd a8 c0 83 3e 4d ac 23 3e
       0.17972283 -0.08453793 0.25732923 0.15983696
000060 b3 f1 9f bd 90 77 1c 3e 5e 87 9d bd e0 f8 0c 3d
       -0.07809772 0.15279984 -0.07691835 0.034417033
000070 64 5c 89 be 9a 5b bb 3c 1e c4 8e bd 57 4b 37 3d
       -0.268283 0.022870827 -0.06971 0.044749584
000080 90 5a 87 bd 4c 61 9d bd 98 98 91 bd d9 44 9f 3d
       -0.0660907 -0.076845735 -0.07109183 0.077768035
000090 3d 48 95 bd 76 ed 7c bc ac f8 a9 3d 57 e2 25 be
       -0.07289169 -0.0154374745 0.082993835 -0.16199623
0000a0 34 67 a8 3d 7b c7 d1 3c 5d 99 8e be c1 ad 11 3e
       0.082228094 0.025607815 -0.27851382 0.14226438
0000b0 8d 24 05 3e 9f bc dc 3d 7d e9 96 3d bd 67 39 be
       0.13002224 0.10778164 0.07368753 -0.1810598
0000c0 9f aa 2f 3d 96 3e 5a 3a b7 f6 27 be 3b 34 25 3e
       0.042887326 0.0008325366 -0.16402708 0.16133206
0000d0 9f cb 8b bd f9 dc 28 3e 5f d0 04 be 02 b7 89 3e
       -0.06825947 0.16490544 -0.12970112 0.26897436
0000e0 ab 17 d1 bc 8a 46 49 bd 09 dc 22 3e b2 1b 85 be
       -0.025523981 -0.049139537 0.15904249 -0.25997692
0000f0 7e d5 18 bd 74 e0 dc 3c 67 d6 35 3e c8 3a 01 3e
       -0.037312977 0.026962496 0.17757569 0.1262008
000100 b9 b6 84 be eb 0a 35 3e 12 3e 6e bd b0 96 29 3d
       -0.25920656 0.17679946 -0.058164664 0.041403472
000110 c4 b1 23 3c 7f cf 36 3e 21 cb f6 bd 8a d1 9b 3e
       0.009991113 0.17852591 -0.120504625 0.30433303
000120 4b e1 1a 3e b8 cf 5d be bf 4a 12 be 5c 5e 5b be
       0.15125005 -0.2166127 -0.14286326 -0.21422714
000130 9b a0 75 3e 71 24 24 be 85 0e c6 3d 7d c6 28 3d
       0.23987047 -0.16029526 0.09670738 0.04120492
000140 ce 06 e5 bd 10 2b 8a 3e 4c f2 01 3d 51 8b 47 3c
       -0.111829385 0.2698598 0.031725213 0.012179212
000150 e6 b9 9a 3c f2 84 07 3e d5 e7 67 be 1d 17 47 3e
       0.018887471 0.13234308 -0.2264703 0.19442411
000160 05 b5 ae bd 63 4d d6 bc 93 66 42 3e 75 1d 99 bd
       -0.085306205 -0.026159948 0.18984441 -0.074763216
000170 4f f1 28 3e 2d 2b 10 3e a3 82 23 3e 45 79 b6 bd
       0.16498302 0.1407897 0.15967803 -0.08909849
000180 e1 8f d4 3d 9c 47 62 bd 3d c0 c7 bc 66 30 4b be
       0.10379005 -0.055244073 -0.024383659 -0.19842681
000190 cc 68 5e 3e 8d ef 55 3e f2 0f 3b be 7f 30 71 3d
       0.21719664 0.20892163 -0.18267801 0.05888414
0001a0 1d dd f9 bd 15 94 36 3e 38 18 0d 3d 11 eb 5b 3e
       -0.12200377 0.17829926 0.034446925 0.2147639
0001b0 b1 4f 65 3d b5 fc c9 bd f0 5f 84 3d 27 56 c1 3c
       0.055984203 -0.09862653 0.06463611 0.023600651
0001c0 37 44 2c 3e e3 68 a5 3d c3 46 2f be 47 59 0f 3e
       0.16822897 0.08076646 -0.17116837 0.139989
0001d0 bd 34 4a 3e 58 2f 21 3d 45 fc 6c be 78 83 0d be
       0.1974668 0.03935179 -0.23143108 -0.13819683
0001e0 84 db 49 3d 4b fa 35 bc 3d ea 63 3e 78 57 64 3e
       0.049281612 -0.011107038 0.22257324 0.22298992
0001f0 05 55 07 3e f9 db 46 be 2d 30 19 bd 74 dc df 3d
       0.13216026 -0.1941985 -0.03739946 0.1093072
000200 23 60 6b 3d 77 a6 13 bd 29 42 c0 be e1 ab 56 3e
       0.05746473 -0.036047425 -0.37550476 0.20964004
000210 e7 f7 69 be 16 ca 01 3e 43 98 e7 bc b3 f2 39 3e
       -0.22848473 0.12674746 -0.028270846 0.18158989
000220 32 5e 33 3e 0e d2 6a be 1d 1b 90 3e 9c 37 89 3c
       0.17516401 -0.22931692 0.28145686 0.01675015
000230 99 3d be bd 54 de a1 bd e9 38 12 bd 4c 1e 6a 3d
       -0.092890926 -0.07903734 -0.035698805 0.0571578
000240 e0 ae d5 3c fa 9f 74 be a7 70 20 3d 6f 7b 23 bd
       0.026084363 -0.23889151 0.039169934 -0.039912637
000250 2b 5c 73 3e 90 c3 04 3e d7 93 15 3d 3d b4 17 3e
       0.23765628 0.12965226 0.036517944 0.14814849
000260 93 dd 92 3d ef fc b4 bd fa 2f 6c be 7d 99 68 be
       0.07171168 -0.08837306 -0.23065177 -0.22714801
000270 11 62 82 3d af db 2a be 10 ff fd bb 1f 90 2f be
       0.06366361 -0.16685365 -0.007751353 -0.17144822
000280 a7 bb 06 be ae c8 35 3e f2 73 4b be 70 32 64 3e
       -0.13157521 0.17752334 -0.19868448 0.22284865
000290 10 4f 24 be 76 38 24 be c4 aa 08 be 9d ce af 3d
       -0.16045785 -0.16037163 -0.13346392 0.0858433
0002a0 f3 27 e5 3d dd dc 0e bd a8 fa 77 bc cd 4b 3f 3d
       0.1118926 -0.0348786 -0.015135445 0.04670315
0002b0 b6 4b 33 3e 70 1a 64 3e 50 ef 52 bd 99 b5 4a 3e
       0.1750935 0.2227571 -0.051497757 0.19795837
0002c0 14 21 c7 3c cc 67 3b 3e b8 2d 96 3d 48 96 5a 3c
       0.024307765 0.18301314 0.07332939 0.013341494
0002d0 53 e6 89 be 2c 2e 8b bd bc f0 04 3e 36 aa b4 bb
       -0.26933536 -0.06795916 0.12982458 -0.005513455
0002e0 3e 77 3a be 42 94 01 be 99 2c e6 3c a2 6e 33 be
       -0.1820955 -0.12654212 0.028097438 -0.17522672
0002f0 95 59 cc bd de 52 0f be 2c 69 50 bc cd fb 97 3d
       -0.09978024 -0.13996455 -0.012720387 0.07421074
000300 d9 f7 cc be 75 8c d0 bd 92 8e a9 3d c7 06 4a 3d
       -0.40032843 -0.1018304 0.08279146 0.04932287
000310 15 89 9d 3d af ce 24 3e 01 bf 5e 3d 45 d3 22 bd
       0.07692162 0.16094469 0.054381374 -0.039752264
000320 fc 03 cb be e5 95 85 be d8 ce a1 bd 44 06 19 3e
       -0.39651477 -0.26090923 -0.079007804 0.14943796
000330 e0 3e 35 3e 02 52 96 bc d1 82 7b 3e 36 cc 03 bd
       0.17699766 -0.018349651 0.24561621 -0.032177173
000340 27 a7 8a 3d 92 d7 9f 3d 09 d0 4c bd 13 9f 99 bd
       0.06770163 0.07804789 -0.050003085 -0.07501044
000350 84 24 4f bc 82 a2 40 bc 75 2c 83 3d d2 5e c0 bd
       -0.012642983 -0.011757495 0.06404964 -0.093930855
000360 8c c3 db 3e 34 1e f6 bc 4a a6 38 3d 36 31 76 be
       0.42922628 -0.030043699 0.04508046 -0.2404221
000370 8d 75 96 be 95 36 54 be d9 11 e7 3d e5 a6 b8 3c
       -0.2938656 -0.20723946 0.11282701 0.022540519
000380 a7 ac 99 3d 12 ae 17 be fb f8 39 be 1c 13 bc bc
       0.07503634 -0.14812496 -0.18161385 -0.02295833
000390 9e 5c de 3d f0 bc 80 be ca f7 30 3e 16 b7 cc bc
       0.10857509 -0.25144148 0.17282024 -0.024989646
0003a0 7c d7 d6 bd d5 5b cf 3d 66 e1 14 3e 50 db ba bd
       -0.10490319 0.101249374 0.14539108 -0.09123862
0003b0 a9 7c 37 bd ec 09 be be 22 8e 8f 3d 61 40 bd bd
       -0.04479662 -0.37116945 0.070095316 -0.09240795
0003c0 2d be 38 be 6c e3 49 be 57 e6 04 3c 30 a8 ac 3e
       -0.18041296 -0.19715661 0.008111558 0.33722067
0003d0 1c 92 6d 3d ad 42 18 3e 29 be f4 3c 19 0b 35 be
       0.05800067 0.14869185 0.029875832 -0.17680015
0003e0 aa 23 0f be 91 cd 03 3e 66 68 32 bd 54 7c 6c bc
       -0.13978449 0.12871386 -0.043556593 -0.014433939
0003f0 d5 5b 1c be a3 bd af 3d 7e 67 91 3d 07 64 0f be
       -0.15269406 0.08581092 0.07099818 -0.14003001

decoder.3.bias f4 [32]
000000 0e 7b 86 be ee f8 8d 3e 41 e4 f3 bd a4 7c 0f 3d
       -0.26265758 0.2772898 -0.1190877 0.035030976
000010 05 49 23 bd 45 df 82 3c 36 ef 94 3e 60 00 d1 3e
       -0.03986456 0.015975604 0.29088753 0.408206
000020 04 d0 e2 bd 00 c8 66 3e 26 6b ad 3d 4f 56 eb bd
       -0.11074832 0.22537231 0.084677026 -0.114910714
000030 4a 67 3a bd c5 1a a3 3e ef ab 8d 3e be 89 64 be
       -0.04550866 0.3185636 0.27670237 -0.2231817
000040 3f 37 a4 bc 95 d1 ae 3d f7 33 1b be 37 f0 b0 bc
       -0.020045875 0.08536068 -0.15156542 -0.021598918
000050 79 a2 d6 3d c4 bf f3 bc cf c7 c5 3e 3a bd be 3e
       0.10480208 -0.029754527 0.38629004 0.37253743
000060 ed 06 80 3e 04 3f 99 3e c8 e9 f2 3d 1d 57 c4 3d
       0.25005284 0.2993089 0.118609965 0.09586928
000070 18 4b 16 3e c0 53 b9 3e e7 dd bf bd 3f b8 66 3e
       0.14677083 0.3619671 -0.093684964 0.22531222

decoder.5.weight f4 [32]
000000 eb d9 7e 3f 25 4f 8f 3f 83 59 94 3f 32 f9 91 3f
       0.99551266 1.1196028 1.1589817 1.1404173
000010 63 ea 82 3f e3 ea 71 3f cf 1b 86 3f fc c6 86 3f
       1.0227779 0.94499034 1.0477237 1.0529475
000020 71 5b 8d 3f bf ea 8e 3f 05 d0 83 3f ab 00 7f 3f
       1.1043531 1.1165389 1.0297858 0.99610394
000030 a1 5a 7d 3f 02 54 88 3f ff 72 93 3f f0 2f 70 3f
       0.98966414 1.0650637 1.1519469 0.93823147
000040 32 6d 95 3f 0e 2d 6c 3f 49 c2 9b 3f f5 ec 85 3f
       1.1673949 0.9225625 1.2168666 1.0462939
000050 56 ec 74 3f 28 31 91 3f 51 6d 9c 3f 48 d1 75 3f
       0.9567312 1.1343126 1.2220861 0.9602246
000060 a3 4c 87 3f b8 27 83 3f 0d f5 86 3f 65 01 6a 3f
       1.0570263 1.0246496 1.0543534 0.9140838
000070 7a 49 89 3f 6b ae 6c 3f 6b e7 a3 3f 33 e7 86 3f
       1.0725548 0.9245364 1.2804998 1.0539306

decoder.5.bias f4 [32]
000000 ea 1f 74 bd 02 88 7d 3d f7 a8 00 3b a0 49 8b bd
       -0.059600748 0.061897285 0.001963196 -0.06801152
000010 a9 33 4e 3d d4 ed 7c 3d 0a 51 14 bd cb 52 1a 3c
       0.050342236 0.061750248 -0.036210097 0.009419153
000020 4e 0b 91 bd 84 04 1a 3d 8d 48 93 bd 38 4b 19 3d
       -0.07082234 0.037601963 -0.07191572 0.03742525
000030 7b 18 11 3c 9c a7 d6 3a 5c 8b 12 3d 12 fe 8b bd
       0.008855934 0.0016376856 0.035777435 -0.068355694
000040 0a 54 c1 3c 98 10 b3 bd e2 cb 18 3b df ce 3d bd
       0.023599643 -0.087433994 0.0023314883 -0.046339866
000050 cf 5d 22 3c d7 6d 72 bd 1c 7c a6 bc 13 65 ba 3d
       0.009910061 -0.059186783 -0.020322852 0.091013096
000060 cd 0a 9d 3c 50 77 c3 bd 74 96 4e bd 32 52 90 3d
       0.01917019 -0.095442414 -0.050436452 0.070469275
000070 d3 5b ab bc 20 85 9c bc c2 eb 9a 3b df 00 0c 3b
       -0.020917809 -0.019106448 0.0047278116 0.0021362824

decoder.5.running_mean f4 [32]
000000 28 56 e7 3d a6 f7 eb 3e 4f 80 0d 3e 3d 08 9d 3e
       0.1129573 0.46087378 0.13818477 0.30670348
000010 19 6d 0c 3e 2e b4 57 3e aa e0 08 3f 41 ad 30 3f
       0.13713492 0.21064827 0.5346781 0.69014364
000020 b4 73 ef 3e bd de ba 3e d0 e4 21 3e b9 9c 40 3e
       0.46767962 0.3649806 0.15809941 0.18809785
000030 6f 03 42 3e 4d e7 e5 3e ad 74 f4 3e 00 b6 aa 3d
       0.18946622 0.4490303 0.47745267 0.08335495
000040 93 3d 9c 3e 58 3f 07 3f 2b 11 53 3e be cd 7f 3e
       0.30515727 0.5283103 0.20612018 0.24980828
000050 cc 8d b2 3e cd db 79 3e a6 97 e0 3e db 15 16 3f
       0.34873807 0.24400254 0.438657 0.586271
000060 1d 85 bc 3e f8 5d fd 3e 9b 3e b8 3e dd bf 60 3e
       0.36820307 0.49485755 0.35985264 0.2194819
000070 eb 68 b9 3e 5e b9 05 3f 7b 94 82 3e 9b 64 cd 3e
       0.3621286 0.5223597 0.25503907 0.40115818

decoder.5.running_var f4 [32]
000000 20 5c 4d 3d da ea 3f 3e 55 97 7e 3d d1 a7 57 3e
       0.050136685 0.18741933 0.06215604 0.2106011
000010 84 73 c1 3d 90 6b ea 3d 7f a7 88 3e d5 d6 c7 3e
       0.09445861 0.11446297 0.2669029 0.3903109
000020 70 e8 0a 3f 6b 9a e9 3d e2 31 88 3d ae 21 cc 3d
       0.5426092 0.11406406 0.066501394 0.099673614
000030 dc c8 d7 3d 81 67 18 3e 9d 60 01 3e 60 96 44 3d
       0.10536358 0.14883234 0.12634511 0.04799497
000040 04 16 85 3e 3c 93 94 3e 10 b7 0b 3e cd ce 35 3e
       0.2599336 0.2901858 0.13644052 0.1775467
000050 b6 46 44 3e 65 e6 2e 3e 54 c9 f9 3d 51 9f 8d 3e
       0.19167599 0.17080076 0.121966034 0.2766061
000060 6d 31 16 3e cb 28 f5 3d 6e b9 05 3e 76 78 72 3d
       0.14667292 0.11970671 0.13059017 0.05919691
000070 64 e0 3b 3e 75 45 63 3e 07 ce 27 3e 33 a6 47 3e
       0.18347317 0.22194465 0.16387187 0.19496994

decoder.6.weight f4 [28, 32]
000000 bd 14 db 3b 0d 99 2d 3c fb 70 09 3e 8a 26 06 be
       0.006685822 0.010595572 0.13422005 -0.13100639
000010 dd 26 21 3d 2b 03 01 bd 5f d3 21 3e c9 04 75 3e
       0.039343704 -0.03149716 0.15803288 0.23927607
000020 b5 b9 a9 bc 3c 43 dd 3d e8 f0 5f bb c9 ed 22 bd
       -0.020718435 0.108038396 -0.003417069 -0.03977755
000030 98 03 0c bd a0 c6 2a 3d 4a c2 37 3a 8c 69 7d 3c
       -0.034183115 0.04169333 0.00070098473 0.015467059
000040 61 9d 02 bd 9e bd 91 bc 86 5d 6f 3d 97 00 4a bc
       -0.03188837 -0.017790612 0.0584388 -0.012329242
000050 55 d6 0a bd f9 44 30 be 91 03 a6 bd f1 79 8e bd
       -0.03389581 -0.17213811 -0.08106149 -0.06956852
000060 dd 8a b5 3d 04 c8 25 3c ec 64 8d 3d fa 84 41 3d
       0.08864377 0.010118488 0.06904015 0.047245957
000070 b0 f8 67 3e f5 e7 30 3d 6d 3c 77 bd ed 0e ef bc
       0.2265346 0.04318996 -0.06036036 -0.029181922
000080 2d 62 5c ba 93 98 b5 3d b6 d6 af 3d a9 cb 25 bb
       -0.00084069633 0.08866992 0.08585875 -0.0025298393
000090 42 c8 17 bd 58 76 85 bd 29 71 a7 3d 12 ab 4f 3d
       -0.037056215 -0.06516713 0.081758805 0.050700255
0000a0 d6 c0 53 bd b0 21 b7 bd 32 80 4a 39 a9 9c e9 3d
       -0.051697575 -0.08941972 0.00019311978 0.11406834
0000b0 97 97 b1 3b 1e 34 2b bd 53 7a 77 3c a2 db 15 3d
       0.0054196822 -0.04179775 0.015104848 0.03658641
0000c0 18 82 5c 3d 1d 23 24 be cf 2a 42 3c 13 d2 0b 3d
       0.053835005 -0.1602902 0.011851027 0.03413589
0000d0 11 a0 0d bd 18 ae aa bd 27 46 97 bd 31 31 1e 3e
       -0.03457648 -0.08333987 -0.073864274 0.15448453
0000e0 28 cd 30 be ff 50 3e 3e fd 89 50 bd cf 53 5b 3e
       -0.17265761 0.18585585 -0.050912846 0.21418689
0000f0 a3 e3 6e 3c ff 97 01 3e 52 7d 2d bd 76 0c da bd
       0.01458064 0.12655638 -0.042355843 -0.10646908
000100 b2 81 8f bb 4d b7 8f bd d3 ac 0c bd e1 62 12 3d
       -0.0043794746 -0.07017384 -0.034344506 0.03573883
000110 6f ef 8d bd f8 fb 0c 3e 6b 32 00 3e 45 98 34 3e
       -0.06930434 0.13767993 0.12519233 0.17636211
000120 3e 1f a8 bd ea 1a 2a 3e a7 c3 bd bd 2d b7 b6 bd
       -0.08209084 0.1661183 -0.09265833 -0.08921657
000130 03 cc 61 3e 5c 5c b2 be e0 0b d4 3b dc 5b 5a 3d
       0.2205048 -0.3483609 0.006471142 0.05331026
000140 b0 e0 0d bc b8 d2 02 3e 6e 1a 3e 3d 6c 05 80 3d
       -0.008659527 0.12775695 0.046411924 0.06251034
000150 fb f8 d7 3c 23 3c 04 bc 1b a5 b2 bd 1b 3e a0 3d
       0.02636384 -0.008070978 -0.087228976 0.07824346
000160 d6 af 19 be 19 58 8c bb a5 9d 3e be 10 54 16 3e
       -0.15008482 -0.004282963 -0.18614824 0.14680505
000170 6e b9 9c 3d 70 d1 e5 bd 6c 67 d5 3d af 58 0e 3e
       0.076525554 -0.11221588 0.10420117 0.13901018
000180 21 ba 35 3d 16 e1 75 3d 1a 0b 9e bd b9 36 78 bc
       0.04436696 0.06002911 -0.07716961 -0.015149766
000190 1f bd 08 3c db 21 64 3c bf b2 6b 3b a6 36 2b 3c
       0.008345871 0.013924087 0.0035964695 0.010450041
0001a0 c6 35 78 3d 73 44 66 3d 56 cc 92 3c c4 ef 65 bc
       0.060598157 0.056217622 0.0179197 -0.014034215
0001b0 a1 85 66 bd 9d 91 cd bb 5a 28 b1 3c 82 3c be bd
       -0.056279782 -0.006273462 0.021625686 -0.09288885
0001c0 3e 90 09 3e 43 9b e7 3c 34 dd fd 3c 55 6a da bd
       0.1343393 0.028272277 0.030989267 -0.106648125
0001d0 7b 57 e8 3d 57 0a a5 ba 31 63 91 3c 45 a7 c5 3d
       0.113448106 -0.0012591582 0.017747493 0.09651045
0001e0 98 a9 f7 bd 48 ad 8c bc be e7 1d bd 7e bf 54 3d
       -0.12092894 -0.01717247 -0.038551085 0.051940434
0001f0 7e 14 01 3c 91 57 e0 3d 7b 41 20 3b f7 21 80 bc
       0.007878421 0.10954202 0.0024453092 -0.015641196
000200 94 0c c2 bd 16 76 65 be 72 00 c6 bd b9 df ae bc
       -0.09475055 -0.22408327 -0.09668054 -0.021346914
000210 dd c0 df bd d6 17 12 3d 23 67 78 3e e6 ec b9 3b
       -0.109254576 0.035667263 0.24258094 0.0056739924
000220 2b 54 e4 3c 02 d5 5e be d7 6c 0d bd 30 cc ac bb
       0.027872166 -0.21760944 -0.034527626 -0.0052733645
000230 42 f7 7c 3d 13 65 dc bc ef e5 b7 be db fc 95 bd
       0.06175924 -0.026903665 -0.35917613 -0.07323619
000240 f9 cb 1d bd fe 97 96 bd 24 57 a4 3c 51 7e 1a 3d
       -0.0385246 -0.07353209 0.020061083 0.03771812
000250 34 24 ce 3d ea 3e da 3d 1e 56 f1 3d d5 7e 19 be
       0.10065499 0.10656531 0.11784004 -0.14989789
000260 07 9d 1b 3d 80 82 e1 3d 80 4b a1 3d 19 22 19 bd
       0.03799155 0.11011219 0.078757286 -0.037386034
000270 2b 17 04 3e 77 4f 15 be 34 f7 ad 3d ed 29 b3 bd
       0.12899463 -0.14581095 0.08494416 -0.08748231
000280 db 0d 0a bb 45 4f 55 bc 8e 52 20 bb 2c 62 6e bb
       -0.0021065387 -0.013019388 -0.002446327 -0.0036374433
000290 18 85 86 bb a1 8e 38 3b 9f 07 5f ba c7 72 a8 bb
       -0.0041052215 0.0028161185 -0.00085079105 -0.0051406357
0002a0 13 e7 83 3b e5 40 49 3b 6c 2c 03 3c 3b 16 bc bb
       0.004025349 0.0030708846 0.0080061965 -0.0057399548
0002b0 6a fc 1e 3a 93 ab 7f ba 28 ca 29 3b 44 23 2f 3b
       0.00060648343 -0.00097530446 0.0025907848 0.00267239
0002c0 fd 37 89 3a d1 35 08 3b cc da cc bb 63 94 31 3a
       0.0010468956 0.002078403 -0.0062516686 0.00067741255
0002d0 96 25 b5 ba 2c 50 34 3b 40 16 89 bb d1 d8 c7 ba
       -0.0013820406 0.0027513606 -0.0041835606 -0.0015247111
0002e0 6b 9a c1 3b 2f cb c8 ba c8 3a 48 b9 08 20 51 3c
       0.0059083006 -0.0015319342 -0.00019095384 0.0127639845
0002f0 2c eb d9 3b 94 97 8f b9 7a fc ab ba f2 8d b9 3b
       0.006650349 -0.0002738802 -0.0013121509 0.005662673
000300 87 94 9b 3d 71 ef 84 3c f3 74 c8 bd e2 cb ee 3b
       0.07596689 0.016227456 -0.09787931 0.0072874883
000310 d7 43 84 bc 96 cd 8c 3c 66 dd 13 3b f0 3d f2 bd
       -0.01614563 0.017187875 0.0022562384 -0.1182822
000320 12 0e 91 3d 0e 0c 13 be 9d 76 a2 bb 81 62 0e bd
       0.07082762 -0.14360067 -0.0049579875 -0.03476191
000330 34 3f 8d bb fd ea 71 3e fe 20 80 3c fb 6c bb bc
       -0.004310513 0.23624797 0.015640732 -0.022879114
000340 f1 ac be 3b 57 1d e8 3c 57 f6 e5 bc 8a 40 5b be
       0.005818956 0.028334303 -0.028071566 -0.21411338
000350 ba 51 91 bd c4 78 2d 3d 29 ab 15 be a3 eb a5 3d
       -0.07095666 0.0423515 -0.14616074 0.08101585
000360 9e 06 7c bd d9 eb fb 3d a0 9d 28 bd 0c 3a 33 bc
       -0.06152975 0.12300844 -0.041165948 -0.010939132
000370 68 6f 04 bd 5d 53 5e be 72 ba 09 3e 9b 29 09 be
       -0.032332808 -0.21711488 0.1345003 -0.13394777
000380 f2 a5 06 3e 9b 17 b5 bc 07 49 00 be 13 75 48 3d
       0.1314924 -0.022105983 -0.12527858 0.048939776
000390 91 28 94 3d 3f 6d 63 3d 92 26 47 be d5 5e dc 3d
       0.072343 0.055524107 -0.19448307 0.10760275
0003a0 38 99 a8 bd 67 41 3b be ba 5f 26 bd b7 86 40 be
       -0.08232349 -0.18286668 -0.040618636 -0.1880139
0003b0 e6 b6 32 3b ce 49 f4 3d 0d 8e 25 be 70 07 eb bd
       0.002726966 0.119281396 -0.1616747 -0.11476028
0003c0 10 64 92 3c fb ba db bc f7 3c 78 3d fb fb c1 3d
       0.01786998 -0.026822558 0.060605016 0.094718896
0003d0 42 1d 7e bd 30 28 89 3d ab 26 19 3d 31 f6 24 3e
       -0.06203962 0.06697118 0.037390392 0.1610954
0003e0 38 e0 cd bd bf f4 ae bc 0a a9 d4 bc ef d7 17 3e
       -0.10052532 -0.021356938 -0.02595951 0.14828466
0003f0 cb 1a c3 bd 53 87 d4 3d a0 a7 3c 3e 99 3b 9e bd
       -0.09526595 0.103773735 0.18423319 -0.07726211

decoder.6.bias f4 [28]
000000 44 35 89 bb 1b 0f 62 bc e0 f4 6c bc c1 07 99 bc
       -0.004187258 -0.013797547 -0.01446268 -0.018680455
000010 15 42 cf 3d 6b f4 60 3a d7 e3 7d 3c 3b 44 47 bc
       0.10120026 0.0008581343 0.015496216 -0.0121622635
000020 e0 a2 a1 3b c9 f3 2a bc 08 44 f4 3c 77 4b a9 bc
       0.0049327463 -0.0104340995 0.029817596 -0.020665867
000030 02 51 90 bc cb 74 ba bc 14 55 02 bd 19 96 4f 3d
       -0.017616753 -0.02276077 -0.031819418 0.050680254
000040 ef e4 b0 3b a8 54 77 3d 43 be c4 bc 41 ee 74 bb
       0.0053983848 0.06038347 -0.024016505 -0.0037373456
000050 09 07 25 b9 9d 99 89 3c 61 21 5b 3d 01 12 b8 bc
       -0.00015738247 0.016796881 0.05349863 -0.022469522
000060 a4 97 14 bc 11 56 8f bd 0a 1f ee bc c7 fd 08 3d
       -0.009069357 -0.06998838 -0.029067535 0.033445146
