model_autoencoder.pth (torch, 22335 bytes, 28 tensors)

encoder.0.weight f4 [32, 17]
00000000: 8b75 4bbe 4996 68be 6017 64be 85db 083d
00000010: a04b 07be 5cca 2b81 b629 b63d 62ad c6bc
00000020: 99d5 47be bc11 1e3e 7970 c03c 654b efbb
00000030: 45fc e7bc 8854 3c3c 4fba 95be d6ac c13d
00000040: a5ca df3c b13e 16be 7a0e 34be 1db4 2dbe
00000050: e9d8 a4bc 78e4 e0bd 85c3 f787 98c3 97bd
00000060: 2206 f73d 4402 7c3e 602f c1bd 1b40 87bd
00000070: 052f 0a3e b377 49bd 0711 dabc 3a94 063b
00000080: dd8e 7dba 2ff3 083e ab75 853d 7ccb 963d
00000090: 2e46 003e 3ccc a2bb ebab a93d fefb 1381
000000a0: c340 8bbd 1d32 5d3c f801 2c3c ec74 41be
000000b0: 3405 2a3e d78f 4cbe 000d aa3d de20 96bd
000000c0: 2e70 5cbe e3ac 14be adff 0d3e d624 1b3e
000000d0: 2337 cbbd 0c4b 203c 8761 26bd cf9e 943d
000000e0: b624 3f00 c164 683d 2fad 05be 42e6 123d
000000f0: 6d13 ecbd b00b 553e 33d4 cbbd bfb4 8ebe
00000100: f655 893e fe4f 153d a762 c7bc b8e5 81bd
00000110: a56b dcbd 01bd 563e 2853 4c3e 5d09 9a3d
00000120: e0a2 af3b 98d4 9004 3ddb abbe f96e 8dbd
00000130: d791 af3d 1138 a03d df45 dbbc 02c7 433e
00000140: 5287 27be 42e6 f13c df7e 9cbd a2cc ab3c
00000150: 889d 893d 0e1d 923b e75e 963d ccc3 2c3c
00000160: 151c 2fbc ab90 693d 0093 5f81 ed09 d4bd
00000170: 7660 28be 3ecf c2be 30da 8a3e 45f6 e53d
00000180: 7142 a7bd a91d 06be 6106 09bd 881e 413e
00000190: 2373 143e c917 58bd 3dc2 f83b 87f5 b93d
000001a0: 576b a93d 09d5 753d b6c7 1d3d e5dc 2681
000001b0: 9631 fb3c 89ee 363c 5623 40bd 3dd7 b53c
000001c0: 90ce cabd 0fe5 0cba af89 e93d 6bd4 b53d
000001d0: df93 753e 97da 24be bb1f 25be 0dca 083d
000001e0: b50e 49bb 648f debc 08b9 93bc 03d4 913c
000001f0: d719 6d81 bd3b 5e3d 0c6d 1d3d 728b 3fbd
00000200: e137 983d 8859 883e 1dcd 9abe ab79 01bd
00000210: c4a6 cbbd 85a5 483d 1212 32bd 09e7 4ebe
00000220: a6cf 5abc 26c8 9d3d b5fb 813d 5a59 80bc
00000230: eeeb 0cbc 426f 0c0e d2b3 d8bd e8c7 9e3c
00000240: e08b 93be ba26 963e 64a6 2fbe 07e5 063e
00000250: d5e8 1e3e 4f3d 16bd a05d b4bd d7aa 31bc
00000260: 2332 393e db86 22be 1528 b6bb acfd 0b3d
00000270: 1545 9cbd 1d21 e2bd 9609 2881 191b 61be
00000280: c31f 0d3e 0add a83c 3bde ebbd b50a febc
00000290: ca91 68bd 2f54 003e 2adb 9ebd 25d5 8a3e
000002a0: 88ed 2ebe 7ee1 adbc b76b 703e 7d36 ca3d
000002b0: 2ecc d73d 5af1 983d 5b41 473e e8c3 9981
000002c0: 015a b43d df70 25be 674a eabd f605 84bd
000002d0: 52fc 9f3d e97f f23d 276e 81bc 419f f53c
000002e0: 86b3 8fbe 0c8f 8b3e 012c fd3d dc95 1dbe
000002f0: 00ad b23a 3fc4 3dbd a3df dabc f25b f4bd
00000300: a3da 5000 83f8 27bd 1238 1f3e 4659 21bd
00000310: 9481 f8bd 8e37 97bc e62b d6bd 92ca 42be
00000320: 3363 9d3e 0703 c63c 43b1 ee3d 4f95 c6bd
00000330: 0b6c 123e 7489 9cbd 8787 d3bd 608c a6bc
00000340: 3bc1 3d3d 66b6 9b01 97c1 3a3e 9f63 dcbc
00000350: 20c9 60be f77a d13d 933b f9bd 98ca 623d
00000360: 847f 0f3d 846b 70bd fd5c 91bd 8727 83ba
00000370: 889a fabd caae 993d c462 e4be ed0b 1abe
00000380: a0bb 483d de2a 2b3e 86f7 c400 ad4a 8dbe
00000390: 8bb5 d13d 9552 88bc d5fe 2d3e 5e21 9a3d
000003a0: d9b3 3abd 358e cd3d b3f6 b9bc 1598 11bd
000003b0: 5313 973d 9288 73bd 66ef 763e b130 7fbd
000003c0: cf53 2a3e 0a2b aabd 816c 9a3e 52af 1d06
000003d0: 7cdb 26be a277 82be 3c57 cd3d 93ba 103d
000003e0: 266d babd 8af3 debd 8d79 033e 43cd debc
000003f0: 68cd 6c3e 4bc7 a83d af0a b6bd e82a 76bd
-0.19869058 -0.22713579 -0.22274542 0.033412475 -0.13212442 -3.1552925e-38 0.088946745 -0.024252597
-0.19515075 0.15436453 0.023491131 -0.007302689 -0.028318534 0.011494763 -0.29243705 0.09456794
0.027318308 -0.14672352 -0.17583647 -0.16963239 -0.020122962 -0.10981077 -3.7279345e-34 -0.074103534
0.120617166 0.2461024 -0.09432864 -0.06604024 0.13494499 -0.04918642 -0.026619447 0.0020535127
-0.00096724724 0.13374017 0.06516584 0.0736303 0.12526771 -0.0049681943 0.08284744 -2.718043e-38
-0.06799462 0.0135007175 0.010498516 -0.18892258 0.16603547 -0.19976746 0.08303261 -0.07330488
-0.21527168 -0.14519076 0.13867064 0.1515077 -0.09922626 0.009783518 -0.040620353 0.07256853
5.798806e-39 0.05673671 -0.13054346 0.035864122 -0.11527143 0.2080524 -0.09952583 -0.27872273
0.26823395 0.03645324 -0.024339033 -0.063426435 -0.10762719 0.20970537 0.19953597 0.07521317
0.0053599924 3.4049474e-36 -0.33565703 -0.06905932 0.085727386 0.07823194 -0.026766716 0.19118884
-0.16360214 0.02952874 -0.07641386 0.0209716 0.067195 0.00445903 0.0734232 0.0105447285
-0.010687848 0.05702273 -4.10641e-38 -0.10353456 -0.16443047 -0.38048738 0.2711959 0.11228613
-0.081669696 -0.13097252 -0.03345335 0.18859303 0.14497046 -0.05275706 0.0075915144 0.09080034
0.082724266 0.06001762 0.038520537 -3.064787e-38 0.030663293 0.01116527 -0.0469087 0.02219736
-0.0990268 -0.00053747086 0.11403214 0.08878406 0.2398219 -0.1609901 -0.16125385 0.033395816
-0.0030678932 -0.027167983 -0.018032566 0.01780129 -4.3548564e-38 0.05425619 0.038434073 -0.046763845
0.07432533 0.26630807 -0.30234614 -0.031610172 -0.099439174 0.048985977 -0.043474264 -0.2020532
-0.013355171 0.07704191 0.063468374 -0.015667606 -0.008601172 1.7309901e-30 -0.10581173 0.019382432
-0.28817654 0.2932642 -0.17153317 0.13173304 0.15518506 -0.036679562 -0.0880692 -0.010843954
0.18085532 -0.15871756 -0.0055589774 0.034177467 -0.07630364 -0.11041472 -3.0863604e-38 -0.21982993
0.13781647 0.020613212 -0.115169965 -0.031010965 -0.05677966 0.12532113 -0.07756646 0.2711574
-0.17082798 -0.021225687 0.2347859 0.09873674 0.10536991 0.07467909 0.19458525 -5.6484435e-38
0.088062294 -0.16156338 -0.11439972 -0.064464495 0.07811798 0.11840803 -0.015799595 0.029983165
-0.28066653 0.27257574 0.12361909 -0.15389198 0.001363188 -0.046329733 -0.026717966 -0.119316
7.425272e-39 -0.041008484 0.15548733 -0.03939178 -0.1213409 -0.018459108 -0.10457592 -0.19022587
0.30739745 0.024171365 0.11654904 -0.09696447 0.14299028 -0.076434046 -0.10328584 -0.020330608
0.046326857 5.7199737e-38 0.18237911 -0.026902972 -0.21951723 0.10228532 -0.12169566 0.05536899
0.035033718 -0.058696285 -0.07097814 -0.0010006287 -0.12236506 0.075040415 -0.44606602 -0.15043612
0.04900706 0.16715571 1.8088552e-38 -0.27596036 0.10239705 -0.01664094 0.16991742 0.075258955
-0.045581672 0.100368895 -0.022700643 -0.035545427 0.07376733 -0.059456415 0.24114761 -0.062302295
0.16633533 -0.0830899 0.30160907 2.9657223e-35 -0.16294664 -0.25481898 0.10026404 0.03533418
-0.0910285 -0.10886295 0.12839337 -0.027197486 0.23125231 0.08241137 -0.088887565 -0.060099512

encoder.0.bias f4 [32]
00000000: 933d 013e d9fa b13e 978f 3d3e 5766 a33e
00000010: f766 c83e 538d 083e f5fd 5a3e cda9 a33e
00000020: 5bcc b73e 8a5e 1e3d 1de9 bc3e 8c95 243f
00000030: 17cb 063f 0992 3d3e ce9f 7d3d 0533 0d3f
00000040: fff3 b23e 236e c93e 56ff 1a3e 8f8d c53e
00000050: 724d f73e 7d1d bd3d 20d8 fb3e 221a 153f
00000060: 01b7 6ebc cd5f 8b3e 90d8 353e 7d83 e13e
00000070: 3618 b93e 413b 943c 4462 a33e f05a 403e
0.12621145 0.34761694 0.18511806 0.31914017 0.39141056 0.13335161 0.2138594 0.31965485
0.35898098 0.03866438 0.368966 0.6429069 0.5265364 0.18512739 0.06191998 0.55155975
0.3495178 0.3934184 0.15136465 0.38584563 0.48301274 0.0923414 0.49188328 0.58243
-0.014569999 0.27221528 0.17758393 0.4404563 0.36151284 0.01809466 0.31910908 0.1878469

encoder.2.weight f4 [32]
00000000: 53db 6e3f 3c59 733f bad8 793f ac34 6e3f
00000010: 5143 7b3f b617 773f b46a 7e3f d84e 6c3f
00000020: e71f 663f 1cba 653f de14 6e3f ac58 6e3f
00000030: dc68 563f ba86 6d3f 1dad 5a3f a5d0 753f
00000040: 03ba 6a3f 2e00 7f3f ca88 4d3f 79eb 873f
00000050: ed97 783f 2282 713f 3cb8 7a3f f9ad 7a3f
00000060: fdcf 5e3f e736 6f3f eb59 823f 7deb 833f
00000070: 786c 803f f469 6b3f 4fa0 613f f6b6 743f
0.9330341 0.95058036 0.97596323 0.9304912 0.9814959 0.96520555 0.99381566 0.92307806
0.8989243 0.89737105 0.9300059 0.9310405 0.8375375 0.927837 0.854204 0.9602149
0.9169008 0.9960965 0.8028685 1.0618736 0.9710682 0.9433919 0.9793737 0.9792171
0.87036115 0.9344315 1.0183691 1.030624 1.0033102 0.91958547 0.88135237 0.95591676

encoder.2.bias f4 [32]
00000000: c368 72bd 0760 153d a4c6 48bd e3ba b3bc
00000010: 8d27 b03d 83c8 ffbc c1b7 5e3d 61ee f4bc
00000020: b086 953d 99b1 7a3e f033 433d 0bb2 2bbe
00000030: 1160 6abd 2fc7 203e 8969 193e ac2b ff3d
00000040: 26cf 0fbe f949 b83d 76b3 26be 8d52 17bd
00000050: dfba 183e a004 0dbe 5c12 023d ed93 103d
00000060: be1e 87bd 5b45 e93d a9dd 1fbe 7222 e93c
00000070: 87e5 123e 24c2 3d3c 551c e63d aadb ca3d
-0.05918194 0.036468532 -0.049017563 -0.0219397 0.08601294 -0.031223541 0.05437446 -0.029898824
0.0730108 0.2448181 0.047656953 -0.16767137 -0.057220522 0.15700983 0.14981665 0.124595016
-0.14043865 0.08998484 -0.16279396 -0.03694396 0.14915036 -0.13771296 0.03175579 0.035297323
-0.065976605 0.11390182 -0.156119 0.028458808 0.1434537 0.011581931 0.11235873 0.09905179

encoder.2.running_mean f4 [32]
00000000: c054 a53e 4a2f d73e 1f84 a43e b77b db3e
00000010: bddb fe3e 16a9 b73e 5fae 9b3e 89e1 cf3e
00000020: d55d 003f 6b4a 713e 13dd fd3e 4385 283f
00000030: 832c 103f 2857 b23e 997e 9f3e 4c33 133f
00000040: f15f 003f efae f03e 45f7 8c3e 2712 e03e
00000050: 229f 0c3f b407 903e ff8d 063f 711d 1a3f
00000060: c721 813e d6d7 d63e 815f d83e 8e1e 0e3f
00000070: 5008 c23e 1eca 973e f07e d13e 7c00 bb3e
0.32291222 0.42028266 0.3213205 0.42867824 0.49777022 0.3587119 0.30406472 0.40601757
0.50143176 0.23563544 0.4958273 0.6582834 0.5631792 0.3483212 0.31151274 0.5750015
0.50146395 0.47008464 0.27532402 0.4376385 0.5493032 0.28130877 0.5256042 0.60201174
0.25221083 0.41961545 0.42260364 0.5551537 0.37896967 0.2964639 0.40917158 0.36523807

encoder.2.running_var f4 [32]
00000000: 386a 123e 87c1 383e 9358 143e b2cb 573e
00000010: c0bd 6f3e 55af 333e b95a 053e 5d97 393e
00000020: 13ba 743e 9159 f33d 8e51 683e 2c53 6f3e
00000030: c859 163e f5e1 423e e15c 2e3e c24b 213e
00000040: e75e 873e 07bd 403e 857d f03d 6a85 163e
00000050: 054f 873e cba2 1f3e 831f 593e 1b5d 383e
00000060: 9494 153e c1c1 5d3e 568e 693e 01d4 993e
00000070: 4e9a d73d 7081 173e f3ea 183e 2681 313e
0.14298332 0.18042575 0.14486913 0.21073797 0.23412228 0.17547353 0.13022889 0.18124147
0.23899107 0.11882318 0.2268736 0.23371571 0.14682686 0.19031508 0.17027618 0.15751556
0.26439592 0.18822108 0.11742691 0.14699331 0.26427475 0.15589444 0.21203427 0.18004267
0.1460746 0.21655942 0.22808203 0.3004456 0.10527478 0.1479547 0.14933376 0.17334422

encoder.4.weight f4 [16, 32]
00000000: b03a aabc 1ce2 d13d a701 f7bd 1296 acbd
00000010: 451c 713d 43cc 08bd 9727 51bd 8ea7 3fbe
00000020: 727a af3d 5c1e ecbc 87de 243d 6ff7 36bd
00000030: e707 853d 2838 2dbd 4489 3abd 9fd7 4fbd
00000040: 2301 8abd 5d0b 9f3c 3907 85bd 72ea 88bc
00000050: bc80 173c fb8a 62bd 4598 82bd ddfc 02bd
00000060: 9795 dbbd c3b5 263e bf4a 6d3d a360 7ebc
00000070: fd47 5c3b 8653 2cbe a1e1 7d3d b776 9c3d
00000080: 15e8 edba 9fe6 91bc 8bb8 3abd d1d0 5f3e
00000090: 04ea 5a3d 147a b83c 1204 9d3d 067c 94bd
000000a0: a526 9cbc c6a8 bbbc 47da d6bb 62dc 893e
000000b0: 4592 afbd 3103 9dbc d4a6 093d 3b3e 513d
000000c0: 68e0 9c3b 8a5a f0bd ad09 7ebb 52e4 93bc
000000d0: e5fe 18be 1548 6bbd a60e e1bd 8c78 633d
000000e0: 1012 39bb ab44 973c f48a 9e3e a0fc 3b3d
000000f0: a68a 843d 38ec 2d3d 329e 113e fc75 cbbd
00000100: eed2 26be cb1c d6b9 decb d2bd 7099 f43d
00000110: 24a3 cebd 82df e93d 0328 613e dbf8 c23d
00000120: f7eb f7bd af2d e63d d0f6 44be a6c9 0abd
00000130: bed0 b6bd 2751 a53c 3424 c93d 5d92 ab3c
00000140: 9cbe 12be dcb8 76be 73ae 12be a28e fc3d
00000150: 830a b83c 20b3 30be baab f33c c1b2 063c
00000160: b45d 173e b7a8 063e 576e c03c bf1d 313d
00000170: dc48 b43d edd5 4abd c1c9 eabd 448b f63d
00000180: b828 79bc 334a 84bd c73d e03c 8d47 f4bd
00000190: ddb8 453e 5f0b 8e3d e1c4 173e 06bd 06be
000001a0: d870 003e e3b1 aa3c 60ba 7639 9d23 a6bd
000001b0: b2ac ebbd 4ed1 dbbd 92ab b43b 921b 983d
000001c0: 8a45 293d 4978 8e3c c310 f33d 94cb 9a3d
000001d0: 26c9 0d3c 559f c63d aeb7 47be 794c b2bd
000001e0: 1763 fabd 1b2c 833d f72b a2bc fa90 ecbc
000001f0: 9f7d 493c 36af a9bd 6901 803d ed6e 303b
00000200: 34c7 703c 7693 1abe e0c2 23bd 1ac0 5b3d
00000210: d8a3 d33d 6ef5 9d3e 8a2e 6ebc 1235 a93d
00000220: 05b7 0b3e 8961 33bd 759f 923d 2e0b ebbc
00000230: b5c7 4dbd 17a9 663c 47e7 993d d3cc 603e
00000240: c53d 1d3e 55d2 c83d 6df6 bcbd 0d45 b9bd
00000250: 6623 6c3d 4d45 60bd 9f2c 68bd bec5 373e
00000260: f845 143d 7bfb a4bd 583b f73c e584 26be
00000270: c4e1 153d 9c74 8d3d 3bdb 51bd bee8 46bd
00000280: 5da2 c4bc b191 02bc 69ae 253d 54aa 25be
00000290: 26e3 d5bd e6dc f4bd 9dfd 883d 33e2 42bc
000002a0: ea6e ce3d b0d3 a93d 2791 f8bc 9b50 c9bd
000002b0: 5ede 2f3d af7a 7cbc 3152 153d e373 183e
000002c0: 44ee 853d ab32 0c3e f9fe c6bd 20b1 adbc
000002d0: 9dfd 773e a097 75bd 4d69 bd3d 4d02 fbbd
000002e0: f5c7 8c3d 5d41 8d3c 76a6 37be 950c 153d
000002f0: 7303 0d3e 482e 38bd 2e1d 04be 27c1 3e3a
00000300: c027 ac3d 4a1c ecbc c86e dbbd 3e3c a13c
00000310: 6bf6 813c dc69 da3d f992 46be e92f c3bc
00000320: d8d2 71bd 83c1 24be 0daf 2d3e 56f4 a23d
00000330: dc91 2bbc 185c d93d 98c9 093d 8a69 173e
00000340: 1353 02be da9d 0e3e 75be b43c 9951 58bd
00000350: 532a 78bb 7103 3cbe a82c 393e c97b 85be
00000360: e746 fabd ba9a 1c3d d763 633d b688 56be
00000370: dba3 93bd 7bd9 89bd 3c0d 28be dfe7 61be
00000380: 08eb 5d3e d2ca 433d 23f6 04bd 6a72 ba3d
00000390: 830c 11be 0c2f 563d e6f9 03be fde2 d13d
000003a0: 2a21 0ebe 45a8 833d e734 d33d 77a5 a03c
000003b0: c897 7a3d f9d7 a13d 9cfe 11bd ff13 81bd
000003c0: 623e 493d d7a2 f3bd 2ac5 9fbd 2048 03be
000003d0: 85b2 073d 6c57 ff3d 99a6 083e a40f 8fbd
000003e0: 1b11 a13d f36d c7bd 6d4f 89bc e66c d33d
000003f0: c0c5 6d3e f645 7f3e 1615 083c d390 79bd
-0.020779938 0.10248205 -0.12060862 -0.08427061 0.05886485 -0.033397924 -0.051063146 -0.18716261
0.085682765 -0.02882307 0.04025128 -0.044669565 0.06495648 -0.042289883 -0.045541063 -0.05074274
-0.06738498 0.019414598 -0.06495518 -0.016713355 0.009247001 -0.055308323 -0.06376699 -0.03197943
-0.107218914 0.16280274 0.05793261 -0.01552597 0.0033612244 -0.16828737 0.061982755 0.076398306
-0.0018150831 -0.017810164 -0.04558615 0.21857001 0.05344583 0.022519149 0.07666792 -0.07250218
-0.019061396 -0.022907626 -0.0065567824 0.2692595 -0.085728206 -0.01916656 0.033606365 0.05108474
0.0047874935 -0.11736019 -0.0038763091 -0.018053208 -0.14940985 -0.05744179 -0.10989122 0.055534884
-0.0028239526 0.01846536 0.30965388 0.04589522 0.064717576 0.042461604 0.14220503 -0.09934613
-0.16291401 -0.00040838713 -0.10292791 0.119433284 -0.1008971 0.11419584 0.2198792 0.09520122
-0.121055536 0.11239182 -0.19234776 -0.033883713 -0.08926533 0.020180298 0.09821358 0.020943815
-0.14330524 -0.24093956 -0.1432436 0.123318925 0.02246595 -0.17255831 0.029744972 0.008221329
0.14781839 0.13150297 0.023490114 0.04324126 0.08802959 -0.04952042 -0.11464263 0.120382816
-0.015207462 -0.06459465 0.027373208 -0.1192771 0.19308801 0.069357626 0.14821197 -0.13158044
0.12543046 0.020836776 0.00023529818 -0.081122614 -0.115075484 -0.10733281 0.005513617 0.074271336
0.041326083 0.01739134 0.118684314 0.07558361 0.008653915 0.09698359 -0.19503662 -0.08705992
-0.12225931 0.06404897 -0.019796355 -0.028877724 0.012298017 -0.08285372 0.06250269 0.0026921586
0.014695931 -0.15095314 -0.03998077 0.05365 0.10333985 0.3085131 -0.014537463 0.082620755
0.13644035 -0.04379419 0.0715932 -0.028691854 -0.050239284 0.0140784 0.07514816 0.21953134
0.15355594 0.09805743 -0.092266895 -0.090463735 0.057650946 -0.05475359 -0.05668318 0.17946526
0.03619954 -0.080557786 0.030179664 -0.16261633 0.03659226 0.06907007 -0.051234465 -0.048561804
-0.024003202 -0.007969306 0.040449534 -0.16178256 -0.10443716 -0.119561955 0.06688998 -0.01189475
0.10079749 0.08292329 -0.030342652 -0.098298274 0.042936675 -0.015410109 0.036455337 0.14887957
0.06539586 0.13691203 -0.09716601 -0.021202624 0.2421784 -0.059959054 0.092486 -0.12256298
0.06874076 0.017243082 -0.17934594 0.036388952 0.13770847 -0.044966012 -0.12901756 0.0007276707
0.08406019 -0.028822083 -0.10714489 0.019682046 0.015864572 0.10664722 -0.19392003 -0.023826556
-0.059038967 -0.16089444 0.16961308 0.0795676 -0.010471787 0.106132686 0.03363952 0.14786354
-0.12727003 0.13927403 0.022063473 -0.052812193 -0.0037867024 -0.18360688 0.18083441 -0.26071003
-0.12220555 0.038233496 0.055515137 -0.20950589 -0.07208987 -0.06730934 -0.16411299 -0.22061108
0.21671689 0.047800846 -0.032461297 0.09103854 -0.14164929 0.05229096 -0.12888297 0.10248373
-0.13879839 0.06428579 0.10312825 0.01961015 0.061179906 0.07902522 -0.035643205 -0.06302642
0.04913176 -0.118962936 -0.07801278 -0.12820482 0.033129234 0.12467846 0.13344802 -0.06985405
0.07864591 -0.09737768 -0.016761506 0.10323505 0.23219967 0.24929032 0.0083058085 -0.06092913

encoder.4.bias f4 [16]
00000000: d69a 153f 4729 643e 8090 613e dd0b 183f
00000010: b8c5 a1bc d2d0 223d 9702 de3c 1d94 663d
00000020: 77c4 113f 90b5 8f3e 899a 4b3f adf9 4c3e
00000030: 3d10 413e 7bf6 693f 1049 803e fc1e 0f3f
0.58439386 0.22281371 0.22027779 0.593931 -0.0197476 0.039749928 0.027100844 0.056293596
0.56940407 0.2806821 0.79532677 0.20017119 0.1885385 0.91391724 0.25055742 0.55906653

encoder.6.weight f4 [16]
00000000: 6e1c 643f 740b 5b3f 1100 4e3f 8aba 593f
00000010: 81b2 533f ec40 593f 1302 503f f6df 353f
00000020: a1eb 4f3f e17f 203f 764b 553f 34c0 483f
00000030: 2163 253f 02f0 733f 0ea7 563f 9504 583f
0.8910588 0.8556435 0.8046885 0.8505026 0.8269425 0.8486469 0.81253165 0.7104486
0.81218916 0.6269513 0.8331827 0.7841828 0.64604384 0.952881 0.83848655 0.8438199

encoder.6.bias f4 [16]
00000000: acf9 6e3d e950 e4be eeb2 3c3f 6533 60be
00000010: 0dcc 743d 831c 6abe 7adf 3dbe ac0c 8a3e
00000020: 6a9d 053f 3fa5 363f 916c 053f aff4 e3be
00000030: bd78 e2be 9a12 363e 21f2 e7be c11f 96be
0.058343574 -0.4459298 0.73710525 -0.21894605 0.05976491 -0.22862439 -0.18542281 0.26962793
0.5219332 0.71345896 0.52118784 -0.44522616 -0.4423274 0.17780533 -0.45301917 -0.293211

encoder.6.running_mean f4 [16]
00000000: b2f6 413f 2e7b 013f 0563 203f 7a9f 3e3f
00000010: 7f2b ea3e 453e 073f cefd d43e 2005 d93e
00000020: 161f 313f 9c13 263f 1177 633f 8d70 1e3f
00000030: 48d4 143f 8d32 833f d041 0b3f 55c0 233f
0.7576705 0.5057858 0.6265109 0.7446209 0.4573631 0.5282939 0.41599888 0.42386723
0.6918806 0.6487367 0.88853556 0.6189049 0.58136415 1.0249802 0.54397297 0.6396535

encoder.6.running_var f4 [16]
00000000: 717e e93e 3e79 083f b510 543f 608d e93e
00000010: cf51 e83e 859e f03e 96b8 043f e5ca ca3e
00000020: 60e2 9c3e c441 043f 38cf 623e 2d17 123f
00000030: 4529 1b3f fd54 b33e de97 e03e 03f5 fe3e
0.4560428 0.5331 0.8283799 0.45615673 0.45374915 0.4699594 0.51844156 0.3960792
0.3064146 0.5166285 0.2214936 0.57066613 0.6060985 0.35025778 0.43865865 0.49796304

encoder.7.weight f4 [8, 16]
00000000: 54e0 8dbc 55af 95bd c7e8 3dbd 1f94 c3bd
00000010: dcd6 fa3d a52e 2f3c c465 2a3e 8e88 3a3d
00000020: 0e73 ae3d 3a7b 413d 7b6c 173e b680 a1bd
00000030: ccaa 17bd c08f e3bc a389 33be 23a8 babd
00000040: 4b62 983c 2e25 a3bd e07c 353e 6e88 6dbd
00000050: 4d60 5fbc f4d9 a23b 6f13 efbd 2a59 763d
00000060: 7c33 33bd 1755 293e cc78 623e 3aaa 0dbd
00000070: a9a5 9abd 0752 52be 8cd3 b83c d35b e7bc
00000080: e1f8 96bd 17d9 dd3d 29e6 7f3e 46b5 21be
00000090: 020d c03c 1cc0 61be 0d62 25bd e20d c43d
000000a0: 2010 bc3d 21b6 b83b 72ff b53d 2d8b 18be
000000b0: 83b3 aeba 35ba 943d 3393 77bd 80af c7bd
000000c0: dbec 4ebc 7d54 3a3d d20a 84bd 1e42 f53c
000000d0: 50da 5f3c e556 20bd 4598 74be 8f54 da3c
000000e0: c83f 243e afd3 993d 9214 6dbc 6bf2 6abd
000000f0: b060 efbd b4ce 21bd 4fc4 a3bb be0d 283e
00000100: becb 9dbc 588a 87bc 5242 d93d 4a05 d9bd
00000110: 2b4e 80bd 772f fbbd 45b5 f93c ec0e 6b3d
00000120: 2a1a b5bd ad5d 453e 5573 1e3e 51a0 383b
00000130: 5401 64be bea0 8b3e 7aca aa3d 881c b43d
00000140: 5a9f 0d3e bb39 9dbd ff2e b23d aee9 973d
00000150: 056d 673d 4624 8bbd 33c6 93bd ce51 81bd
00000160: 249f ee3d 6de8 a43d 6a0e 263e 30e6 30bd
00000170: 264c 203d cb1a 263e 7156 eebd dde5 06be
00000180: 21fd 38be 0522 e4bd 5adb 103e 8791 89bc
00000190: 904c 833d e399 b23d f2a1 11be eb58 ac3c
000001a0: 7e7a 933b d1d6 bf3d 9c9d b4bd 12e6 03ba
000001b0: 1cc9 a5bc b987 2cbc 3543 57bd d2da 27bc
000001c0: c3c8 3c3e 25d3 f3bd 9962 233d 3fcc 92bd
000001d0: a44a c1bd 541f 003d 0872 533d 1405 873d
000001e0: f7ae 1c3e fa4f ec3d 9e3a 293d a4f4 17be
000001f0: 43aa 833c bdaf c13c a637 873d 7adb f7bd
-0.017318882 -0.073088326 -0.046364572 -0.09549736 0.122480124 0.010692273 0.16640383 0.045540385
0.08518039 0.04723666 0.14787476 -0.07885878 -0.03702812 -0.027778506 -0.17532973 -0.09114101
0.018601557 -0.07966076 0.17723417 -0.057991438 -0.0136338 0.0049698297 -0.116736285 0.060143627
-0.04375027 0.16536365 0.22116393 -0.03458617 -0.075511284 -0.20539103 0.02256181 -0.028242027
-0.07371689 0.10832422 0.24990143 -0.15791807 0.023443703 -0.2204594 -0.04037671 0.095729604
0.09182763 0.005636946 0.08886613 -0.14896841 -0.0013328645 0.07262079 -0.060443114 -0.09750271
-0.012629713 0.04549073 -0.06447376 0.029938754 0.01366289 -0.03914537 -0.23886211 0.026651649
0.16039956 0.075110786 -0.014470236 -0.057360094 -0.116883636 -0.039503768 -0.004997767 0.16411492
-0.01926219 -0.01654546 0.10608353 -0.10596712 -0.06264909 -0.122649126 0.030481944 0.057387277
-0.08842881 0.19274016 0.15473683 0.0028171728 -0.22266132 0.27271074 0.083394006 0.087945044
0.13830319 -0.07677027 0.0870037 0.07417618 0.056500454 -0.06794028 -0.07215538 -0.06314431
0.116514474 0.08052144 0.16216436 -0.043188274 0.03913512 0.16221158 -0.11637581 -0.13173623
-0.18065311 -0.11139301 0.14146176 -0.016793026 0.064110875 0.08720758 -0.14221933 0.021038493
0.004500686 0.09367145 -0.08819124 -0.00050315366 -0.020237498 -0.010530406 -0.052554328 -0.010245042
0.1843596 -0.11905507 0.039888952 -0.07167863 -0.09438065 0.031279877 0.05162242 0.065927655
0.15301119 0.11538692 0.041315667 -0.14839417 0.016072398 0.023643369 0.06602411 -0.12102409

encoder.7.bias f4 [8]
00000000: cbc8 133f 5edf c03e 5769 e83e 4640 1b3e
00000010: d83d f73e ea12 c93e 8f1c 173f dd4b f23e
0.5772826 0.37670416 0.45392868 0.15161237 0.4828937 0.39272243 0.5902795 0.47323504

decoder.0.weight f4 [16, 8]
00000000: 079b 95be cfad 0e3e 4aa0 3e3e c415 803e
00000010: f352 00be 8715 f8bb c12e 10be dd81 0f3d
00000020: 27e8 40bd 0660 72be 593e 163e c66e aabe
00000030: 5569 7bbe 36f0 88bd 5a45 983e f230 153e
00000040: 3ac4 e4bd 0f56 b53d e4a4 c0bd b492 fdbd
00000050: aa2c 75bc 7796 a33d 55d4 9b3e c99b ca3d
00000060: 5565 0fbd ee30 153d 9055 d4bd 5baa 83bc
00000070: af57 013d 39ec 70bc 0c2e 933c 646d 1bbe
00000080: b4c1 f93c 7c61 ebbd 6470 a33d 608f a83e
00000090: 430b bcbd fa01 053e cd37 c23e 4128 073e
000000a0: e775 9b3e d2c9 003e 687f b03d 3b99 113e
000000b0: c4c9 49be 61f7 7a3e 8368 173e 3c44 bebe
000000c0: 48bb 17be 699b 8fbe 700e 1ebd 77a7 6b3e
000000d0: 0653 413e 4ec9 523e 1b9a 503e 47b9 2cbe
000000e0: 96c5 1dbd 8e57 e13d 6270 b23e 0f91 12be
000000f0: 265f 9f3e 69b8 94be 2e47 d53c 573c 4d3d
00000100: 0737 183c 8f9f 5a3e 1194 2ebe eddf a03d
00000110: 1e91 f33d 8be6 cd3e 58fd 89bd f01f 51bd
00000120: f091 bfbe d69b 983e 2c38 93bd 52a5 3ebe
00000130: 18b0 05bc af5b 08be ca10 433e 775f 4b3e
00000140: 2d11 df3d 7523 e93e 3d62 5a3e e008 793e
00000150: 3482 a53d 105c 82be 031a 35bd 3f60 5fbe
00000160: dbae 633e 0f40 16be e63d 563d e462 fc3b
00000170: 272e 343e 77bd d9bd a21d 8d3e ebbb 86be
00000180: 3198 c53e 674e 583e 021f 8fbe b082 0fbe
00000190: cfc5 193e 1050 973c eaba 483e b5c1 cc3d
000001a0: b9a2 20be afa8 89be c5d4 5a3e b763 8abe
000001b0: 26cf de3e 35e0 9e3e aa38 6f3d a8b9 0cbd
000001c0: 5dca 3ebe 1151 763e 3bc4 5d3e e382 69be
000001d0: 4a3a c7bd 0147 7c3e bfd3 083e b043 23be
000001e0: 4d5b 873d 4f29 1dbe eb91 c7bd 050b 24bc
000001f0: 8506 013e 46cb dcbd f303 b63e d740 983e
-0.2921984 0.1393349 0.18615833 0.25016606 -0.12531643 -0.0075709256 -0.14080335 0.035035957
-0.047096398 -0.23669443 0.14672221 -0.33287638 -0.245519 -0.066864416 0.2974041 0.14569452
-0.1117024 0.08854305 -0.094064504 -0.12381497 -0.014964262 0.07987683 0.30435434 0.09892995
-0.035008747 0.036423616 -0.10367882 -0.016072443 0.031577762 -0.014704757 0.017966293 -0.15178448
0.030487873 -0.11493203 0.07980421 0.32921886 -0.091818355 0.12989035 0.37933198 0.1319895
0.3036339 0.12576988 0.08618051 0.14218609 -0.19705874 0.2450843 0.14785962 -0.37161434
-0.14817536 -0.28048256 -0.038587987 0.23013102 0.18879327 0.20584604 0.20371287 -0.16867553
-0.03851851 0.11003028 0.34851366 -0.14313148 0.3112728 -0.29046944 0.026034918 0.050106373
0.009290463 0.2134993 -0.1704867 0.078552105 0.11892913 0.40214953 -0.067377746 -0.05105585
-0.3741603 0.29806393 -0.07188448 -0.18617752 -0.00815966 -0.13316225 0.19049373 0.19860636
0.10891948 0.45534864 0.21326537 0.24319792 0.08081475 -0.25460863 -0.04421426 -0.21814059
0.22234671 -0.14672874 0.052305125 0.0077022184 0.1759573 -0.10631841 0.2756167 -0.26315245
0.38592675 0.21123658 -0.27953345 -0.14014697 0.15016864 0.018470794 0.19602552 0.09997884
-0.15687074 -0.26886508 0.21370228 -0.270292 0.43517417 0.3103043 0.05840365 -0.034356743
-0.18631883 0.24054362 0.21656887 -0.22803836 -0.09727915 0.24636461 0.13362025 -0.1594379
0.06609211 -0.15347789 -0.097446285 -0.010012393 0.12600143 -0.10780959 0.35549888 0.2973697

decoder.0.bias f4 [16]
00000000: 3caf bb3e 11b1 013f 0f30 2abd dd7b c03e
00000010: 8d56 05be 5f40 393e eea8 cc3e 59d8 f83d
00000020: b972 ea3d 1cc5 d83e be4b 943e ac5f 5abb
00000030: f80a 23be 528f a33e d202 40bc 2c1a 053c
0.3665713 0.50660807 -0.04154974 0.375945 -0.13021298 0.18090962 0.39972633 0.1215064
0.11447663 0.42337883 0.28964037 -0.0033321185 -0.15922153 0.31945282 -0.011719422 0.008123916

decoder.2.weight f4 [16]
00000000: 5ca5 7f3f 509b 783f fc7a 5f3f af69 6d3f
00000010: 3077 6f3f eea7 6f3f 154c 7c3f 03ad 713f
00000020: c7da 653f fd19 6e3f 789c 833f f877 7a3f
00000030: dbac 7a3f afa5 713f 45e1 833f c415 653f
0.99861693 0.9711199 0.87297034 0.92739385 0.9354124 0.93615615 0.9855359 0.9440462
0.8978695 0.93008405 1.0282125 0.9783931 0.97920007 0.9439344 1.0303122 0.89486337

decoder.2.bias f4 [16]
00000000: 86b1 c43c 70b3 f33b f2f7 e83d 2b96 b13b
00000010: 18d5 88bc 1bc2 de3d 99ab 6d3d 0957 8e3c
00000020: c83e 4e3d 7136 843b b6ff c2bd 42d2 92bd
00000030: 9930 10bc fa4c f73c f057 613c d7f7 fd3d
0.024010431 0.007437162 0.11375417 0.0054195127 -0.016703174 0.108768664 0.058024976 0.017375486
0.05035284 0.0040348102 -0.09521429 -0.0716901 -0.008800649 0.030188072 0.013753876 0.12400787

decoder.2.running_mean f4 [16]
00000000: 0cf0 8c3e 35a9 c53e 65e9 3e3e 2c06 383e
00000010: 429e dd3e 7b0d 033f 9f00 e13e b39e 0f3f
00000020: 5ab1 fc3e 58c6 d53e f928 2f3f 0416 623e
00000030: ea24 df3e 8239 3a3f 7a64 743e f0c1 d23e
0.2752689 0.38605657 0.1864372 0.17971104 0.43284804 0.51192445 0.43945786 0.5610153
0.49354059 0.41752887 0.68421894 0.22078711 0.4358285 0.72744 0.23866454 0.41163588

decoder.2.running_var f4 [16]
00000000: 78af d33c 97f8 153d a03a 913c 8fce b43b
00000010: e87f 093d 5f8d 733d 5208 093d 2c40 813d
00000020: b1c0 083d 8937 2d3d e49f 6a3d 4a37 023d
00000030: e334 823d 04ac b93d de38 2b3d 8329 f33c
0.025840506 0.036614027 0.01772815 0.0055177878 0.033569247 0.059460994 0.0334552 0.06311068
0.03338689 0.04228929 0.05728139 0.03179101 0.063577436 0.090660125 0.04180228 0.02968288

decoder.4.weight f4 [32, 16]
00000000: 822e c4bb e835 08bc f20c 043e bf00 8b3e
00000010: 4617 45be 8d4c 0c3c 3726 a73d 2384 99bd
00000020: 42fb 2abd ff2f 013e d2ae f1bc 88f0 513b
00000030: 7e4e 1bbc ec3c 8bbd 225c fc3c 95e4 97bd
00000040: a2c5 f9bd 43f3 283d ef3b 07be 765d 00be
00000050: 5396 06be 57b4 383e 0c66 743e 1093 dfbd
00000060: 514c a93d a4f3 1dbe b023 18be 1fa6 4bbe
00000070: 092e 57bd e4c1 b63d 8d9f 393c 175e a53d
00000080: e698 0e3e 3520 d33c 7a2e c6be 6b9b 98bc
00000090: fc8d 22be a5e7 f23b 2551 ed3c ce58 9c3d
000000a0: 5dd4 8fbe 93e4 49be 26ec cf3d 498f f2bc
000000b0: eb8f acbe 950f d53d c39a 0e3e d902 bdbe
000000c0: bab1 0fbe 97cd 5a3d 9275 173e f970 b1bd
000000d0: 6542 d1bd 9b47 943d abc4 7d3e f9d2 72bc
000000e0: 10f4 00bc cd9e 35be 5345 42be 26a3 4d3e
000000f0: 4025 f23d 949f 8f3e f579 ee3d d7c1 f3bd
00000100: 03b6 3b3e 880e bd3d def7 0cbd 04ec 343c
00000110: 2c43 04bc 804f d73d 05bc 063d 1635 2a3d
00000120: 521d 4bbe 0680 41be be45 d93d 4cc4 0c3e
00000130: 44d1 29be 7b41 7b3d bc9b 4fbe ba21 98be
00000140: 433d 74be 1e3d 3bbe ac93 333e 3e27 24bd
00000150: b9a1 363e ea05 4abd d818 58bd 7652 b0bd
00000160: ef08 563e b2c7 d23d 29a2 7a3d d309 54bd
00000170: 76f9 a13e 8fb6 9ebd d6ff b03b a412 9b3e
00000180: 69f1 96be 64c0 a23d 06ac 68be 913a 0cbc
00000190: 4931 8abe 0cba 8abd 30d8 6cbe 0baa 48bc
000001a0: 32ba 93bd 6789 1dbe 9c88 a1bd bd9a 223d
000001b0: 5913 f83d a863 07bc 4c3a c6bd 7be5 133d
000001c0: b836 f9bd 0a2a 29be 8ea1 11be ebb4 c8bb
000001d0: b316 5c3e 9196 533e 31ed d9bd 7a00 68be
000001e0: 6728 8ebd 3ddc 18be 31bc 4cbc 85a2 2c3e
000001f0: 89f0 343c 744a 2c3d 81f5 553e 63a9 00bd
00000200: f7ea a23d 3e43 623e 2cb0 c9bc 6932 32be
00000210: ae94 16be 500f e83c d2e4 3d3d ca69 1e3e
00000220: 1581 0a3e 4566 583e 2593 18be 9521 cabd
00000230: 17ce babd 6998 793e 69f5 813e 10ff 143d
00000240: 9ec8 84bd f1ec b6bd 616a 37bd d034 853d
00000250: ad44 30bd 5db8 183e 1694 04bc b4ef 98bc
00000260: 6936 623e b0ae 7d3d 685b 903d f9ad 283d
00000270: c177 283d 60ae 043d 694a 9f3d 5bcc abbc
00000280: 347f 01be ec78 df3d 2a0f 033e c970 303b
00000290: 4b39 3d3e fb8a d83c 7ed1 333d 32a7 19be
000002a0: 12bc 593e 6b39 803e 6b15 9cbd 5770 b93d
000002b0: 2e72 c63e a2e5 48be ffd5 dabd 195f b23e
000002c0: 9589 e33d 83f1 c3bd 4664 e63d 0dda 343e
000002d0: 3257 b53d 4949 ecbd 4f63 893e 0d90 2c3d
000002e0: dd68 c93d ea1f 9abd ae4c de3d fd08 48bd
000002f0: f26f 283c 79e0 183e ee97 f0bd d39c 063d
00000300: 87d2 cb3d a615 1ebe b4a4 853d 7a8c 39be
00000310: 70b4 b3bd 524f 9dbe 3402 e3bd cb7c 2fbe
00000320: 8e5a 4cbd 7178 583e 978d edbd 8c14 afbe
00000330: 89f7 26be 2d90 56bd ab88 0cbe 7019 313d
00000340: be67 4f3c 55f5 5c3e 33a4 193e 4034 4dbd
00000350: f2a5 e43d ab7c 7c3d 40c9 8d3d dec3 8e3c
00000360: f90c f93d bc2b 0dbe 10ac dbbd ef26 e5bd
00000370: 57b0 3fbd d8e4 ac3d 7ce2 113d 96d0 4ebd
00000380: e748 02be 2a9e bf3d b17f 513d f9db 723d
00000390: 1fc5 293e 701f f13d 6b72 9b3d 4edd 4e3e
000003a0: d813 7dbe 7ddb ffbc 576e 383e b358 e33e
000003b0: 1aaf 73bb 6a37 473d 9a95 d73b f077 2f3e
000003c0: 40dd e2bd bc40 563d 184e 94bd df80 e93d
000003d0: 6748 fabd 79c7 b4bc 9b0d f1bd bc79 f3bd
000003e0: 326b bcbd cce2 e1bd 8aa8 6bbe 07b4 c83d
000003f0: cb1a 213e fd5b 06be 0b7d 82be bda2 763e
-0.0059869895 -0.0083136335 0.12895563 0.27149007 -0.1924716 0.008563173 0.08161586 -0.07495906
-0.041743524 0.12615965 -0.029502306 0.0032034237 -0.009479163 -0.06798729 0.030805651 -0.074166454
-0.121958986 0.041247617 -0.13206457 -0.12535653 -0.13143282 0.18037544 0.23867053 -0.10916722
0.08266509 -0.15424973 -0.14857364 -0.19887589 -0.052534137 0.089237005 0.011329544 0.08074587
0.13925514 0.025772193 -0.38707334 -0.018628797 -0.15874475 0.007412868 0.028969357 0.07634126
-0.28091708 -0.197161 0.101524636 -0.02960934 -0.3370355 0.10403363 0.13926224 -0.36916235
-0.14032641 0.053418722 0.14790943 -0.08664126 -0.10217742 0.0724022 0.24782054 -0.014820808
-0.007870689 -0.17736359 -0.18971758 0.20081767 0.11823511 0.28051436 0.11644355 -0.119022064
0.1833115 0.09231287 -0.034416072 0.011042599 -0.008072656 0.1051321 0.032894153 0.041554533
-0.19835404 -0.18896493 0.106090054 0.13746756 -0.16583735 0.061341744 -0.20274252 -0.2971323
-0.23851494 -0.18285033 0.17536801 -0.040076487 0.1783513 -0.049322046 -0.052758068 -0.08609478
0.20901845 0.10291995 0.061189804 -0.05176718 0.31635636 -0.07749664 0.005401592 0.3028766
-0.29481056 0.07946852 -0.22721872 -0.008558885 -0.26990727 -0.06773767 -0.23129344 -0.012247573
-0.07213248 -0.15384446 -0.07887384 0.03969835 0.12113065 -0.008263506 -0.09679088 0.03610752
-0.1216864 -0.16519943 -0.14221784 -0.0061250827 0.21493034 0.20662905 -0.10640944 -0.22656432
-0.069413 -0.14927764 -0.01249604 0.16858871 0.011043676 0.04206319 0.20894434 -0.03141154
0.07954972 0.22095963 -0.024620138 -0.17402042 -0.14705154 0.028327614 0.0463608 0.15470043
0.13525803 0.21132763 -0.14899881 -0.098696865 -0.0912134 0.24374546 0.25382546 0.03637606
-0.06483577 -0.08931912 -0.044779185 0.06504214 -0.043034244 0.14914079 -0.008091947 -0.018668987
0.22091068 0.061934173 0.07048684 0.04118154 0.04112983 0.03239286 0.077778645 -0.020971468
-0.1264618 0.10911736 0.12798753 0.0026922694 0.18478887 0.026433459 0.04390096 -0.15005186
0.2126315 0.25043806 -0.07621273 0.0905463 0.38758987 -0.19618848 -0.10685348 0.3483818
0.11110226 -0.09567549 0.112495944 0.17661305 0.08854522 -0.115374155 0.2683358 0.042129565
0.09834454 -0.075256184 0.10854469 -0.048836697 0.010280596 0.1492938 -0.11747728 0.032864403
0.09952264 -0.15437946 0.06525555 -0.18119994 -0.0877465 -0.3072458 -0.110844046 -0.17137448
-0.049891047 0.21139695 -0.11599272 -0.34195364 -0.16305365 -0.05238359 -0.1372401 0.04323715
0.012659011 0.21577962 0.15004043 -0.050098658 0.11164464 0.06164233 0.06923151 0.017427381
0.121606775 -0.13786215 -0.10726178 -0.111890666 -0.04679903 0.08442086 0.035616383 -0.05049189
-0.12723123 0.09356339 0.051147167 0.059291814 0.16579102 0.11773574 0.07590183 0.20201609
-0.24714601 -0.03123259 0.18010841 0.4440361 -0.0037183226 0.04863683 0.006579113 0.17135596
-0.11077356 0.05230783 -0.07241458 0.11401533 -0.12220841 -0.022067772 -0.11770173 -0.11888453
-0.092001334 -0.11029586 -0.23013511 0.097999625 0.15732877 -0.13121028 -0.25486025 0.24085517

decoder.4.bias f4 [32]
00000000: c68e 213f 760b b93e 27a9 c73d 9bf9 663e
00000010: 2c15 053f a676 c93e d34a adbb 65ac 093f
00000020: c43d 21bc 0aa6 443f f543 1b3e bc6e 233f
00000030: 75e2 df3e ca52 173f d7aa c13d e5b1 e03e
00000040: 9346 a43e 5f2f 4d3e 371e dc3d 7d9c 563e
00000050: ca54 2c3e 8ebe 93bd 08d0 713d 18bc dd3d
00000060: 9180 933e c257 a0ba 66f4 89bd 3667 a23e
00000070: 4f40 843c e9ba 163f f0c1 133e 0465 07bd
0.6310848 0.36141557 0.0974906 0.22556154 0.5198543 0.39348334 -0.0052884608 0.5377868
-0.009841386 0.76815856 0.15162642 0.6384084 0.4372746 0.591107 0.09456413 0.43885723
0.32085094 0.20037602 0.107479505 0.20958133 0.1682922 -0.0721408 0.059036285 0.10826892
0.28809026 -0.0012233185 -0.067360684 0.3171937 0.016143946 0.5887895 0.1442945 -0.03305532

decoder.6.weight f4 [32]
00000000: aa4f 8b3f abf3 663f 82c0 903f dbcc 6b3f
00000010: 36da 643f 94b7 7f3f cedc 933f d9ca 673f
00000020: 96fd 693f 4194 843f b000 823f 4892 653f
00000030: 8975 723f 672d 773f 2605 903f c90d 6b3f
00000040: 0bf4 6d3f 46ae 9c3f 0479 873f 927c 553f
00000050: a697 4e3f 688d 793f d7ff 763f 3b7f 643f
00000060: 6368 713f 43ed 583f fab2 893f cc5d 633f
00000070: 8c9c 873f 3ac3 733f 7001 923f 3953 703f
1.0883687 0.9021556 1.1308749 0.9210946 0.89395463 0.99889493 1.1551759 0.90543896
0.91402566 1.0357744 1.015646 0.8967633 0.94710594 0.96553653 1.1251571 0.9181791
0.92950505 1.2240684 1.0583806 0.83393204 0.8070015 0.97481394 0.9648413 0.8925664
0.94299906 0.8473703 1.0757744 0.88815 1.0594649 0.9521977 1.1406689 0.9387699

decoder.6.bias f4 [32]
00000000: 0483 9ab9 3c9a 61bc 2bb3 8b3c 1035 c83c
00000010: 214a 5b3d b969 723d 9ead fa3c ceb3 ec3c
00000020: dd4c 85bd e3bf 94bd bea1 fcbc 8e09 8dbd
00000030: ceb1 f83c e0f3 9ebc 03b3 6bbd 0194 a23d
00000040: 8940 143d 9f01 293d 43df 44bd fa0e 1fbd
00000050: d2c5 463d e8e2 82bd 003f ca3d c010 87bd
00000060: 516a a33d 1635 343c 3e7c 7a3c be30 2ebc
00000070: bb39 b8bd b053 023d 304b 8ebb 6e6a a6bc
-0.00029470783 -0.0137696825 0.017053207 0.024439365 0.05353749 0.059182856 0.030600365 0.028894331
-0.06508801 -0.07263162 -0.030838843 -0.06886588 0.030358221 -0.019403398 -0.057543766 0.07938386
0.036194358 0.04126131 -0.04806448 -0.038832642 0.0485285 -0.06390935 0.098752975 -0.06594992
0.079792626 0.010998985 0.015288411 -0.010631738 -0.08995386 0.031818092 -0.004342459 -0.020314422

decoder.6.running_mean f4 [32]
00000000: cbb1 293f 8f0a fe3e 2311 073f 2e4b d93e
00000010: cc8f 1b3f 60d6 2b3f 2b3c 953e dfbb 153f
00000020: a025 ae3e 3856 443f df70 113f 5f6f 343f
00000030: e6c7 283f 5288 273f 425b f33e 3d63 153f
00000040: a52f f53e 3dc6 e63e 6b89 f03e 124b d33e
00000050: 2220 d43e 7a18 9d3e f04c de3e 38c7 993e
00000060: 892d d43e 5241 9a3e 1cf1 a83e 54ab d03e
00000070: f6d9 a53e 0f05 443f 8894 fa3e 29c4 c93e
0.66286916 0.4961743 0.52760524 0.4244017 0.6076629 0.67123985 0.29147467 0.58489794
0.3401308 0.7669406 0.5681285 0.7048244 0.6593002 0.65442383 0.47530562 0.5835455
0.47887912 0.4507312 0.46979842 0.41268212 0.41430765 0.30682737 0.43418074 0.30034804
0.4144099 0.3012796 0.32996452 0.40755713 0.32392853 0.7657022 0.48941445 0.3940747

decoder.6.running_var f4 [32]
00000000: be82 513e cc85 613e ca11 093f ccb3 733e
00000010: 8923 c03e 7664 0d3f 8f6c 8d3e 3b1c 863e
00000020: f000 8c3e c02f 0b3e 82ef 073f ab36 9f3e
00000030: a978 013f 2855 423e 2469 c53e 74b5 be3e
00000040: 5ca0 a63e 1193 983e 16d7 f73e a5f0 703e
00000050: de55 8a3e 1e33 733e 0dbe af3e 7043 223e
00000060: 64af 823e 1fe9 333e d745 a53e a063 383e
00000070: 85ab 473e 6508 243f e0a7 c23e 555b a73e
0.2046003 0.22023696 0.5354277 0.23799056 0.3752711 0.55231416 0.27621886 0.26193413
0.27344465 0.13592434 0.53099835 0.31096396 0.5057474 0.18977797 0.38556778 0.37247813
0.3254422 0.29799703 0.48406285 0.23529299 0.27018636 0.23749968 0.34324685 0.15846038
0.25524437 0.17569397 0.32279846 0.18006754 0.19499023 0.6407531 0.38018703 0.32686868

decoder.7.weight f4 [17, 32]
00000000: 04c4 a43d ddf5 81bd 4afe 83ba 2339 abbd
00000010: 3d86 d3bb 6f78 a03d d278 993c 0a6b 0f3c
00000020: a751 b93d f702 143e 5540 92bd 9d7a 69bb
00000030: f7e9 2abe 5e8d f1bd a6fb e0bc 5aef 16be
00000040: 65fe 1bbd 574a 8e3c 137a 0f3d f1bd 953d
00000050: 71a4 133e 712c 18be 4f97 a53d 7def 1abc
00000060: ef51 753e cbc4 b03d 6cae bebd 8884 0bbe
00000070: bfe3 95bc 6a5d 013e 7582 683d 2859 a9bd
00000080: c7c9 b03e 2468 853d 5bd0 2abc 52a1 4f3d
00000090: aec1 b2bd 95b9 b5bc 6ead 74bd 082f 963d
000000a0: 796c 44bd aa4c 373d 422a a6bd 49cd cb3d
000000b0: 723a c4bd 40c2 383b 5a8c febc 1e0a 153e
000000c0: d9b4 bfbc 4202 463d 85bc be3b 0801 92bd
000000d0: df07 ca3c ae66 35bd 2d3f 0c3d 6960 5bbe
000000e0: 27c4 20be 1b1e 7b3d 8c09 393c 93c1 10bc
000000f0: 5085 50bd 4d2a d93c d03b 5a3d f1af 953d
00000100: b108 f33d 47cc 5e3d f31c d83d fb68 9c3d
00000110: 5c91 ac3c c62d 993d d46e 87bd b083 df3c
00000120: 8e00 99bd 1af7 173e 3d7a 04bd 3df0 063e
00000130: 282f 1cbe bb18 c43c 0b2c e4bd 94bc c43c
00000140: fca2 d83d a919 a0bc 265c b23c 22de 143d
00000150: 1db7 693d 1d4b 57bd d66e 38bc 89bb 603c
00000160: 2425 bcbd 7f2c cf3d 668f 043d 164a 4fbe
00000170: 455a a7bd 34b0 243c ede1 673d 8d94 9e3d
00000180: 0eeb 3e3e 96b9 4f3b fcaa 7cba b2f5 ddbd
00000190: aaaf 9dbd d872 e6bb 466c 303d f0a9 69bc
000001a0: 7d70 c7bd 24d9 92bd e2ef b6bd 9d1d 063d
000001b0: d1af a7bc 02db 683d 6859 d53d d9c0 8abd
000001c0: 2602 ba3d 25ad 453d 53d0 a3bd f4d8 d53c
000001d0: 75ce f6bc 8df0 7a3d 3c49 ca3d 28c2 8a3d
000001e0: 0f49 373d fb14 cbbd e48e 8b3c 7395 473d
000001f0: af07 93bd b589 f9bd 6a9a 24bc 8988 ef3d
00000200: 6af5 733c 107e 7cbd 4b0d 4e3d 4eed 923d
00000210: 8ae3 dbbd 5883 e03c e950 5abc aa27 523d
00000220: c514 00be b255 1f3e 1aa5 363d 2c1b 9e3d
00000230: 1c14 d9bc e920 5f3c 0ea5 b2ba c2f3 0bbe
00000240: 3eaa 053e 3958 06bd de8f bb3b 4bc0 92bd
00000250: 9896 dc3d 21f3 783b baec 14bd 5dcf 033e
00000260: e851 193e a1fe 503a db18 ff3c 73a8 32bd
00000270: 79b9 f6bc 245d d13d e31e 49bc 412a 91bd
00000280: 4144 cdb7 d7ad c1b9 21fc d6b7 4284 a7b8
00000290: b842 ef38 e3e8 1eb9 2f33 8139 1c01 d339
000002a0: aace adb9 ea2d 423a 1c69 1938 974d 47ba
000002b0: b29f b8b8 16e8 7a3a 725d e7b9 d201 c939
000002c0: 0561 14ba 8b9e 35ba b90f b5b9 f111 96b7
000002d0: 91ba 8539 9029 013a 6a16 2eb9 e4dc 3738
000002e0: fbbd a6b9 eee7 c839 c3f7 95b9 52b8 343a
000002f0: ef8a 5a3a 7500 2839 dffc 2139 0290 6d39
00000300: 231a 893e c536 44be 1510 81bc 308e 3bbe
00000310: 3634 cebd c6a2 fcbc 4873 f83d 97f2 5fbe
00000320: fd66 99bc 5cee 2ebd 25e6 83bd e2d8 98bd
00000330: 7967 a03d eedd 54be 3840 d8bc 5dac 20bd
00000340: 7554 76bd 9f47 f63d 4121 683d 9c2a 793c
00000350: e355 ecbd b683 86bd 2e09 d2bd 8144 81bd
00000360: b4c8 8b3d 54f5 cd3d 3ecc 613d 501e 2c3e
00000370: f806 133d 2e16 d73c cefd eebd 5181 fbbb
00000380: 0a89 aabd 57e8 4cbc 7c45 2fbc 66f5 94bd
00000390: f0cd f93c d74d 513c d4b6 5a3c c2f3 dcbd
000003a0: 6d2a f93c 17bc 45be 0859 7abc 2003 503d
000003b0: fce6 c53c 1949 0bbc 9531 823d 6968 d83c
000003c0: 7007 e8bd 022d c5bc a99f dcbd 3e15 273e
000003d0: 6bfd 103c 287a 56bd 3c95 cabd da44 a03d
000003e0: d0eb 25be b998 f6bd 1e5e 953b eb6d 83bd
000003f0: 8574 9c3d 6c96 6ebc e49a 84bd cb73 533e
0.080451995 -0.06345723 -0.0010070291 -0.08360507 -0.0064552114 0.07835471 0.01873437 0.008753547
0.09048777 0.14454256 -0.071411766 -0.0035626062 -0.16690813 -0.11794542 -0.027463745 -0.14739743
-0.038084406 0.017369432 0.03502853 0.07311619 0.14418198 -0.14860703 0.080855004 -0.0094565125
0.23957036 0.08631285 -0.09310612 -0.13624775 -0.018297074 0.12633291 0.05676504 -0.08268958
0.34528944 0.06514004 -0.010425652 0.050690956 -0.08728348 -0.022183219 -0.059735708 0.07333189
-0.04795501 0.044750847 -0.08113529 0.099512644 -0.0958146 0.0028191954 -0.031072784 0.1455464
-0.023401665 0.048341997 0.005820813 -0.07129103 0.024661956 -0.044287376 0.034239937 -0.21423496
-0.15699826 0.061308008 0.01129378 -0.008835214 -0.050908387 0.026509428 0.053279698 0.07308949
0.11866892 0.054394033 0.105523966 0.07637211 0.021065407 0.07479434 -0.06612936 0.027284473
-0.07470809 0.14840356 -0.032343138 0.13177581 -0.15252364 0.023937574 -0.11141213 0.024015702
0.10577962 -0.019543486 0.021772455 0.036344655 0.057059396 -0.052561868 -0.011256894 0.013716587
-0.091867715 0.10115909 0.032363318 -0.20243105 -0.081715144 0.010051776 0.056611944 0.077431776
0.18644354 0.0031696311 -0.0009638516 -0.10837878 -0.07699521 -0.0070327334 0.043072008 -0.014261708
-0.09738252 -0.071703225 -0.08932473 0.032743085 -0.020469578 0.056849487 0.104174435 -0.06775064
0.09082441 0.048260827 -0.07998719 0.026104428 -0.030127743 0.061264563 0.098772496 0.067753136
0.04474741 -0.09916111 0.017035909 0.04872651 -0.071792 -0.12184469 -0.010046581 0.11695964
0.014890054 -0.06164366 0.050305646 0.071741685 -0.10736759 0.02740638 -0.013324955 0.051307358
-0.12507923 0.15560034 0.044591047 0.077200264 -0.026498847 0.013618686 -0.0013629512 -0.13667205
0.13053223 -0.03279898 0.0057239374 -0.07165583 0.10770911 0.0037986713 -0.036358573 0.12872072
0.14972651 0.0007972513 0.031139782 -0.043617677 -0.030117737 0.10222843 -0.01227543 -0.070881374
-2.4469688e-05 -0.0003694135 -2.5628195e-05 -7.9878155e-05 0.000114088354 -0.00015154811 0.00024642932 0.00040245883
-0.00033151108 0.00074073544 3.6575933e-05 -0.00076028093 -8.803549e-05 0.00095713267 -0.00044129376 0.00038339064
-0.0005660209 -0.0006928227 -0.00034534725 -1.7889748e-05 0.0002550674 0.0004927153 -0.00016602283 4.383632e-05
-0.00031803534 0.00038319774 -0.00028604091 0.0006893921 0.0008336743 0.00016021899 0.00015448358 0.00022655728
0.26777753 -0.19161518 -0.015754739 -0.18315959 -0.10068552 -0.030839335 0.12131363 -0.21869884
-0.018725866 -0.042707786 -0.06440381 -0.07463242 0.07832236 -0.20787784 -0.02639781 -0.03922688
-0.06013914 0.120253794 0.05667234 0.015207913 -0.11539819 -0.065680906 -0.10255657 -0.06311894
0.068253905 0.10056558 0.05512642 0.16808438 0.035895318 0.026255693 -0.11669503 -0.007675328
-0.083269194 -0.012506566 -0.010697719 -0.072733685 0.030493706 0.012774906 0.013349254 -0.107886806
0.030415738 -0.19310032 -0.015280016 0.05078423 0.024157993 -0.008501315 0.06357113 0.026416974
-0.113295436 -0.024069313 -0.1077264 0.16316697 0.008849482 -0.05236259 -0.098917454 0.078256324
-0.16203237 -0.12040848 0.004558339 -0.064174496 0.07639412 -0.014562231 -0.064748555 0.2064964

decoder.7.bias f4 [17]
00000000: 029b 95bc 8afd e3ba 4059 6c3b a6cc 9b3b
00000010: 8180 003d a62c de38 e933 b03b c45c 403d
00000020: 2b39 c53c 25b0 e73b 320b 983d c926 88bb
00000030: b76e 833a 33cb 83ba cf18 193d 1eb0 9dbd
00000040: 6231 d63c
-0.01826239 -0.0017394286 0.003606394 0.0047546206 0.03137255 0.00010594101 0.005377282 0.04696347
0.024075111 0.0070705586 0.0742401 -0.004155014 0.0010027502 -0.0010055065 0.037377175 -0.07699607
0.026146594
